NNs and Implementation in microprocessor/1_100_model.pkl (torch_old, 20664 bytes, 3 tensors)

fc1.weight f4 [100, 39]
000000 4e 84 63 bd f9 45 36 3e a6 e0 b0 3d bf 09 e0 3e
       -0.055546097 0.1780013 0.08636598 0.43757436
000010 29 6d 46 3e c7 30 d0 bd 1e 71 1b bb 3f 6d 4a 3e
       0.19377579 -0.101655535 -0.0023718546 0.19768237
000020 a7 b8 33 3e 24 5b 1e 3e bc 9b e1 3d 59 31 a7 be
       0.17550908 0.15464455 0.11016032 -0.32654837
000030 25 3d c2 be 6b f9 f8 bd 8f 33 8b be 99 08 65 be
       -0.37937275 -0.12156948 -0.27187774 -0.22366561
000040 f4 8f 8e 3d ec 55 bf be 21 9e 52 3d 24 47 50 be
       0.06961051 -0.3737024 0.051420335 -0.20339638
000050 d1 9e 9b 3d 79 bf 58 bd ac 68 29 be 93 97 d5 3d
       0.07598651 -0.052916978 -0.16543835 0.10429301
000060 60 64 26 be cc 9e e0 3d 44 72 b1 bd bf a6 4b bd
       -0.16249228 0.10967788 -0.086643726 -0.04971957
000070 ea ba 07 be 98 01 80 3e 43 ed 0b be 6c ea 21 be
       -0.13254896 0.25001216 -0.13664727 -0.15812081
000080 16 41 7a 3e e1 bd 26 be 62 fa 6f be a6 4a b6 3d
       0.24438891 -0.1628337 -0.23435357 0.08900957
000090 38 ed 73 3d 92 53 bf bd 54 c1 c3 bd 3b ba 16 be
       0.0595524 -0.09342112 -0.09558359 -0.14719479
0000a0 0c 94 19 bd 16 8f ef bd 20 c0 99 3b 71 09 ca bd
       -0.037494704 -0.11697213 0.0046920925 -0.09865082
0000b0 fc 94 10 3d 5c 7d 34 3d f0 d9 31 bc 46 49 ae 3d
       0.035298333 0.044064865 -0.010855183 0.085100695
0000c0 60 c2 e8 3b 64 16 db 3d 51 41 c4 bd ac 55 d0 3d
       0.0071032494 0.1069763 -0.095827706 0.101725906
0000d0 dc be d1 3d b0 5c 55 bc 8c 5f 33 bd ed 87 09 be
       0.10241482 -0.013022587 -0.043792292 -0.13430758
0000e0 ef 3f 20 be 46 cc 17 be 40 a5 d0 3d 98 ff e2 bd
       -0.15649389 -0.14824018 0.10187769 -0.11083907
0000f0 e8 c8 f3 3c e8 d2 cf 3d 00 eb 06 3d ac 10 f4 bd
       0.029758886 0.10147649 0.032938957 -0.119172424
000100 a0 da f2 bc 08 14 19 3e 88 69 02 3e 20 dd e2 3d
       -0.029645264 0.14949048 0.1273557 0.110773325
000110 20 73 09 3e 32 c7 8d 3d 93 2e ac bd 84 db 14 be
       0.13422823 0.06922759 -0.08407321 -0.14536864
000120 80 82 33 3b 30 90 a1 3d a0 28 d8 bd 5f 14 0f be
       0.0027391016 0.0788883 -0.105546236 -0.13972615
000130 80 6a 32 3c 8c f9 3e bd 95 eb b8 bc e4 1f 73 bf
       0.010889649 -0.046624705 -0.022573272 -0.94970536
000140 ef 9c 4f be 09 0e aa 3e 7f 58 88 bd fa 11 58 bd
       -0.20274709 0.33213833 -0.06657504 -0.05275152
000150 30 73 2b bd d3 6c ba 3d 31 78 fc bd d5 17 73 bd
       -0.0418579 0.09102788 -0.12327612 -0.0593489
000160 45 9a 62 bd 0a 68 eb bd 91 dd 26 be 69 36 cb bd
       -0.055322904 -0.11494453 -0.16295458 -0.09922487
000170 97 b4 98 3e 11 75 fb 3e 6b a1 a8 3e fb dd d0 bd
       0.2982528 0.49112752 0.32935652 -0.101985894
000180 d2 bf 0e 3e e1 6a 46 3d 06 3e 99 3e c4 c9 37 3e
       0.13940361 0.04844177 0.29930133 0.17948061
000190 13 f8 2b bd 3e 0e 9e 3c bb 6e 58 be 6d 4e 11 be
       -0.04198463 0.0192939 -0.2113599 -0.14190073
0001a0 b1 5a b6 3a 9e a7 bb bd 2a d0 47 3e fe 29 a5 3e
       0.0013912526 -0.0916283 0.19513002 0.322586
0001b0 a5 5f 87 3e e8 bd b3 3e 03 9c d1 3d f8 e6 a0 3b
       0.26440158 0.35105824 0.10234835 0.004910346
0001c0 19 d7 35 3d f0 fb da bd 3e 25 49 bc d5 a5 74 3d
       0.044394586 -0.106925845 -0.012276946 0.059728462
0001d0 15 c5 b2 3d 1e c7 b6 bc 7b 9d 32 3e fb 5d 79 3e
       0.08728997 -0.022311743 0.17442887 0.24352257
0001e0 d9 d9 21 be a8 9e 65 bd c2 f6 55 3e 54 c8 cd 3e
       -0.15805759 -0.05605951 0.20894912 0.401919
0001f0 6b 5b 74 bc 3a 16 74 be b5 e0 84 be 77 d5 5f 3d
       -0.014914374 -0.23836604 -0.25952688 0.054646935
000200 29 89 59 be 1e be 85 3c 85 81 a5 bd 68 51 31 3d
       -0.21243729 0.016326007 -0.080813445 0.043290526
000210 cb 87 0d be aa d6 01 3e d7 29 0d bd 26 c3 b5 3e
       -0.13821332 0.12679544 -0.03446373 0.3550045
000220 c7 16 5e 3e 15 33 ad be ae 10 a1 bd f6 8c cf bd
       0.21688376 -0.33828035 -0.078645095 -0.10134308
000230 07 40 04 3e df 57 52 be 23 af 5e 3e b6 b8 f2 bd
       0.1291505 -0.20541333 0.21746497 -0.11851637
000240 3d ba 0b 3c 7b 2f 7a 3e 33 b3 98 bd 95 0b 6f 3e
       0.008528289 0.24432175 -0.074560545 0.23344262
000250 d2 50 19 3e c3 a6 c9 be 8a 13 0a be 50 11 8c be
       0.14972237 -0.39385042 -0.13484016 -0.27356958
000260 01 8e 99 3e e1 91 ed bd f2 3d 93 bd b5 b0 8c bd
       0.29991153 -0.1160009 -0.071895495 -0.06869642
000270 f3 3a 7c 3e 7a 86 84 be eb bc 6b be 6d 10 0e 3d
       0.24631862 -0.25883847 -0.23021285 0.034683634
000280 c8 69 39 be 10 9a 28 3c 30 4f 29 3e 08 06 b3 be
       -0.18106759 0.010290638 0.16534114 -0.3496554
000290 8a 22 a4 3d 70 56 ba 3e aa 8d 4e 3d ed 8b 15 3e
       0.080144 0.36394072 0.05042807 0.14604159
0002a0 17 58 2e be d7 b3 a0 3d d2 af 09 3e f8 78 4e 3d
       -0.17025791 0.07846802 0.13445976 0.050408334
0002b0 f2 c7 22 bb 94 7d 7b 3c 90 14 9c bd 74 a3 1c 3e
       -0.0024838415 0.015349764 -0.076211095 0.15296727
0002c0 98 dd 27 3e d9 15 aa 3e 12 c0 cc be e1 18 42 be
       0.16393125 0.33219793 -0.39990288 -0.18954803
0002d0 f9 37 6a bd 9e 7c 90 be 5f f8 fb bb 28 ae a6 bd
       -0.057182286 -0.28220075 -0.0076895203 -0.081386864
0002e0 ae 03 90 bd b9 43 43 bf bd 20 02 3e 0e f5 ae 3d
       -0.07031952 -0.7627521 0.12707801 0.08542834
0002f0 a1 5d 64 3d 0c f9 9e 3e 10 20 24 bf 2a 2b 82 3d
       0.055753354 0.31049383 -0.64111423 0.06355889
000300 03 33 73 3e 5c 4f 95 3c 83 e9 e7 bc ee 73 f4 bd
       0.23749928 0.018226318 -0.02830959 -0.11936174
000310 20 05 67 3d 58 fb 01 3e c0 c7 cf 3d 2e 5f 19 bd
       0.056401372 0.12693536 0.10145521 -0.037444286
000320 51 48 01 be 1d 56 ef bd 6f 31 cc bd e4 1e cd bd
       -0.12625243 -0.11686347 -0.09970366 -0.100156575
000330 26 c7 2f bd 6c dd 29 3d 14 f2 11 bd 08 6f 86 bd
       -0.042914532 0.04147093 -0.035631254 -0.06564146
000340 90 1c 2c 3d 7a 8b 0c be 50 b0 bd 3c a0 9e ed bb
       0.042019427 -0.13725081 0.023155361 -0.0072515756
000350 b0 03 30 bc 50 6c 16 3e f4 24 77 3d 68 9f ec 3d
       -0.010743067 0.14689755 0.060337976 0.11553842
000360 83 50 a4 bd d8 04 86 bc 81 91 b0 bd 48 b1 11 be
       -0.08023169 -0.016359732 -0.08621503 -0.14227784
000370 40 72 39 3b 48 9b cc 3c 63 ea 23 be 98 95 1f bd
       0.0028296858 0.024976388 -0.1600738 -0.038961023
000380 fc 3a ef 3d d0 91 22 be b0 0b 8c 3c d8 36 d4 3d
       0.11681172 -0.15875936 0.017095417 0.10362023
000390 1a d6 e6 bd fa 1b 1a be ab 8f ce bd b4 f7 d1 3d
       -0.112713054 -0.15049735 -0.10085996 0.10252324
0003a0 24 04 d9 bd 24 aa 13 be ec 60 05 bd 92 9a 46 bd
       -0.10596493 -0.14420372 -0.032563135 -0.048487253
0003b0 70 13 f9 bd a4 ed ce 3d 30 41 5f 3c cc 9a 14 3d
       -0.121619105 0.1010392 0.013626382 0.03628044
0003c0 c6 7f f3 bd 00 51 b0 3d a4 5a 06 be 1c 8d ed bd
       -0.11889605 0.086091995 -0.13120514 -0.1159918
0003d0 e6 99 b1 3d 2a ec 8a 3d c8 c7 94 3d 1a 50 90 3d
       0.08671932 0.06783326 0.07264668 0.07046528
0003e0 5e 2b 06 be 16 b0 17 3e 74 22 cc bd be ca 1d be
       -0.13102481 0.14813265 -0.09967509 -0.15409371
0003f0 ba a3 28 bd 34 48 fc bd c4 a9 00 bd 12 af 12 3e
       -0.041171767 -0.12318459 -0.0314119 0.14324597

fc1.bias f4 [100]
000000 af 1f 99 bd e2 de 18 3e 34 d3 19 3d c3 12 a0 bd
       -0.07476746 0.14928773 0.037554935 -0.078160785
000010 d7 f3 95 3e 28 56 3b 3d b0 59 0c bd d5 f9 92 3d
       0.29287598 0.045736462 -0.03426522 0.07176558
000020 7b 56 65 bd 2a 06 60 be 4d d1 0e be 99 5c 28 3d
       -0.055990677 -0.21877351 -0.1394703 0.041103933
000030 09 db bc bc 41 db 99 be 2b b4 b5 3d aa b4 9a 3c
       -0.023053663 -0.3005009 0.08872255 0.018884975
000040 f3 6b aa 3c 03 4b 0a 3e 2b 2e 70 3e 00 07 4a be
       0.020803427 0.13505177 0.23455112 -0.19729233
000050 be 52 4c 3e 27 e0 a6 bd 9f fd 8d 3d af 3f 9c 3c
       0.19953439 -0.081482224 0.0693314 0.019073335
000060 20 5f e5 bd 32 00 2c be 59 3d 58 3c 5b 2f ab 3d
       -0.11199784 -0.1679695 0.01319822 0.08358642
000070 8c 3c 4c 3d e6 e2 6d 3e 75 b6 13 be 1c 54 2a be
       0.04986243 0.23231086 -0.1442507 -0.16633648
000080 c4 1c 07 bd 90 ab bc bd 13 9c 03 3d 08 ab 73 bd
       -0.032986417 -0.092124104 0.032131266 -0.05948928
000090 db ab c6 3b 32 8e d7 3d 0a a2 cb 3b b2 9f 70 3e
       0.0060629672 0.105251685 0.006214385 0.23498419
0000a0 78 90 cb 3d 25 f3 cd 3c 00 bd 3d bb 78 fc 22 be
       0.099396646 0.025140354 -0.0028951764 -0.15916622
0000b0 2c 31 23 be dd ab 22 be 40 c9 3e be 1d d9 e2 3d
       -0.15936726 -0.15885873 -0.18631458 0.11076567
0000c0 94 22 bb bc 29 ea 3e 3b 96 2a a0 bc 7d a1 9a be
       -0.022843637 0.002913127 -0.019551557 -0.3020133
0000d0 3d ed 53 3e 53 5d 18 be 7d 2b 68 3d 2f 85 1b 3e
       0.20695968 -0.1487935 0.0566821 0.15187524
0000e0 75 87 fc bd 49 11 3b bc ef 97 be 3c 63 7d 2d be
       -0.12330524 -0.011417695 0.023265807 -0.16942362
0000f0 10 c7 5f bc d6 8d 04 3e 8a f3 70 3e ff 0d 89 3d
       -0.0136583 0.12944731 0.23530403 0.06692123
000100 a6 63 7c bb 34 4b 17 be 6f c9 89 bb d0 97 fb bb
       -0.0038511544 -0.14774781 -0.004204921 -0.0076780096
000110 69 bd 20 be e1 ba 1a bc 69 db eb 3d 18 8a f4 3d
       -0.15697254 -0.0094439695 0.115164585 0.11940402
000120 20 9a 15 be 40 42 8c 3d de 89 1b 3e c1 4b 99 bd
       -0.14609575 0.06848574 0.15189311 -0.07485152
000130 de 57 7a bd 0c 71 cb 3d 38 a5 7f 3d 90 b5 81 3d
       -0.061118953 0.09933671 0.062413424 0.063334584
000140 e7 4d 0b be af 34 49 3e 98 df c5 3d 1c e7 ad bd
       -0.13603936 0.19649003 0.09661788 -0.08491346
000150 92 5a 0c bc 95 92 52 be b9 81 94 bd bc 78 53 3e
       -0.0085665155 -0.20563729 -0.07251305 0.20651525
000160 22 f2 90 3d c2 ec fe 3d 3b 16 17 be 4b c1 f7 3d
       0.07077433 0.12447502 -0.14754574 0.120974146
000170 78 56 17 3d 7b b9 62 3c 28 33 c6 bd 46 14 13 bd
       0.036947697 0.013838167 -0.09677726 -0.035908006
000180 e8 5c 4f be 22 60 83 be 1a 4c 40 be 27 e6 0c 3d
       -0.20250285 -0.2565928 -0.1877903 0.034399178

fc2.weight f4 [10, 100]
000000 ba df dc 3e 2b 02 c0 bd 10 35 03 be 3a b6 55 3e
       0.4313944 -0.093754135 -0.1281321 0.20870295
000010 50 8f 76 bf 0a 41 58 3d 74 e2 e2 bc 84 b1 df 3e
       -0.9631243 0.0527964 -0.027695872 0.4369012
000020 fe ed a5 bd e5 99 6c bd 3b 72 0f 3d 7a 2a 41 be
       -0.08102034 -0.057763953 0.035021048 -0.1886386
000030 fa 1a 16 3e ca 6e 91 3d a2 02 9c 3d cb 74 86 be
       0.14658728 0.071012095 0.0761769 -0.2626098
000040 d2 0f 61 3f 9e 69 a3 3d 16 ff 91 3e 9c 00 4e be
       0.87914765 0.07979129 0.28514928 -0.2011742
000050 10 01 12 bd ea 42 a8 3e 66 e9 4a be cc 68 80 be
       -0.035645545 0.3286355 -0.19815597 -0.25079954
000060 25 7c 74 bf 60 8b b7 bd 34 34 66 bc 61 dd 62 bd
       -0.9550193 -0.089621305 -0.014050532 -0.055386905
000070 91 08 8c 3d 46 bc 21 3e 00 f8 27 bc d0 06 2b 3d
       0.068375714 0.15794477 -0.010251999 0.041754544
000080 e7 07 7c bd d8 95 94 bc 32 f8 2f be af 56 c7 3e
       -0.061530974 -0.018137857 -0.17184523 0.38933322
000090 4b 48 4c 3e 59 29 8e be 9f 23 36 be 95 28 5d bf
       0.19949453 -0.2776592 -0.17787026 -0.8639005
0000a0 93 15 6e bd 77 52 e2 3d ad 03 b2 3d a3 20 fd 3b
       -0.058126044 0.11050885 0.08692107 0.007724838
0000b0 52 f8 d9 bd 59 cf 95 3d ba fa 47 be 5d 2e 43 bf
       -0.106430665 0.07314939 -0.19529238 -0.7624262
0000c0 04 87 fb 3d 29 dd 8a 3e 6f 9c 30 bf 56 05 25 3e
       0.122816116 0.27121857 -0.689887 0.16115317
0000d0 b7 e4 27 3c 7f 6d ae bd 58 2d 61 3d de 4a 67 bf
       0.010247401 -0.085169785 0.054974884 -0.90348613
0000e0 ad f7 56 be 15 54 7d be 2a 53 96 bc a2 29 3d be
       -0.20992918 -0.24739106 -0.018350203 -0.18472913
0000f0 ca 33 99 3d 1b 5c 1f 3e 4e f2 07 bf 8b db bb bd
       0.07480581 0.15562479 -0.531041 -0.09172734
000100 ab 6d 32 be 2f 5a 53 bf 05 2b b8 bd 52 04 fb 3b
       -0.17424648 -0.82559484 -0.0899258 0.007660427
000110 4a 81 c7 bd c8 86 82 bd 1a d3 0e 3d ba 1a 2d 3d
       -0.09741457 -0.06373364 0.03486929 0.042261817
000120 b7 31 6c bd 90 1d 45 bd 85 f0 e3 be d9 57 98 3d
       -0.0576646 -0.048123896 -0.4451944 0.074386306
000130 5b bb cc bd de 39 4f 3d 9a ef 4c 3d 8c 6c da bc
       -0.09996673 0.050592296 0.05003319 -0.026663087
000140 03 24 29 3b cc 26 85 3d 07 00 2a bd 5d da 42 be
       0.0025808818 0.065015405 -0.041503932 -0.19028611
000150 4a b9 24 be 23 09 0d 3f a0 fc 0e bd e5 3c d1 be
       -0.16086307 0.55092067 -0.03490889 -0.4086677
000160 5b 98 bd 3d 50 0e b7 3e 6d eb a2 be 47 60 f7 3d
       0.09257575 0.35753107 -0.3182024 0.1207891
000170 58 46 02 bc 23 83 9a 3e 00 d0 a0 bc 02 19 ff bc
       -0.007951342 0.30178174 -0.019630432 -0.031139854
000180 28 f0 ad 3d dd 7a cb 3d 62 d9 99 3c b6 58 c0 be
       0.08493072 0.09935544 0.018780414 -0.3756768
000190 68 48 ea 3d 38 b7 96 3c bf ad ae bf 14 c3 cf bd
       0.11439592 0.018397912 -1.3646773 -0.1014463
0001a0 0b 6e 44 bf 6d db 19 bd ee e0 47 3d 34 95 da 3d
       -0.7673041 -0.037562776 0.048798494 0.106729895
0001b0 cb f7 59 3e de 5a 5b 3e 32 09 8c 3d b6 e8 27 3e
       0.21285932 0.21421382 0.06837691 0.16397366
0001c0 29 02 e5 3d ed 14 3f 3e f8 f9 e2 3d 2b 89 a9 3e
       0.11182053 0.18660326 0.11082834 0.33112463
0001d0 5b 9f af 3e 7f 6f 20 bf 51 d9 12 3e b0 b5 9a 3e
       0.34301266 -0.6267013 0.14340712 0.30216742
0001e0 5a 8a 97 be fa e2 90 bc 77 c9 a2 bf b6 ad 3f 3d
       -0.2959774 -0.017686356 -1.2717732 0.046796523
0001f0 80 19 84 3e 61 a4 4e 3d 84 92 80 bc 91 17 a8 3d
       0.25800705 0.050449733 -0.015694864 0.0820762
000200 4f 6b 81 3d 89 ec 0a be c7 99 b9 bd b4 98 b0 3d
       0.063192956 -0.13566794 -0.09062534 0.08622876
000210 a9 65 9a 3d 50 9e 19 bc 0c e5 c4 be b1 90 4c 3e
       0.075389214 -0.009376124 -0.38456 0.1997707
000220 64 a3 06 bf 22 15 5e 3e a9 28 f6 bd c1 f2 2d bf
       -0.52593064 0.21687749 -0.12019474 -0.6794854
000230 29 1d be 3d 69 30 56 bd 39 a2 90 3d 28 39 10 3b
       0.092829056 -0.05229226 0.070621915 0.0022006724
000240 47 e2 c0 bc d8 be 65 bc 41 d7 71 3d 42 65 73 3e
       -0.023545397 -0.0140225515 0.059043173 0.23769096
000250 07 58 df 3d 26 49 50 bd 98 76 86 3e 6e d7 21 3e
       0.10905462 -0.05085101 0.26262355 0.15804836
000260 c9 3b c5 3d 4a 7a 18 3d 10 6c 44 3e 4a 1d f3 bc
       0.09630544 0.037226 0.19181848 -0.029677052
000270 2c 4c 15 3e 78 e4 4f be 2d 39 ce 3c 3a 20 0b be
       0.14579839 -0.20301998 0.025173748 -0.13586512
000280 79 98 31 bd 9c 13 00 3e be 52 8e be 96 0a 04 be
       -0.0433583 0.1250748 -0.27797502 -0.12894663
000290 59 b7 91 bd 1f 84 19 3f e9 69 fb bd 61 d6 55 be
       -0.07115049 0.59967226 -0.1227606 -0.2088256
0002a0 80 62 a5 bd 55 48 a1 3d 86 4f 41 be 55 c4 9c bd
       -0.08075428 0.07875124 -0.18877992 -0.07654635
0002b0 ba 36 66 3d e0 07 29 bd 9d 48 6b bf 32 ea 07 3d
       0.056204535 -0.041267276 -0.91907674 0.03318233
0002c0 00 98 33 38 36 05 4d 3d ba 6f 27 bd 5d 86 2a bd
       4.2818487e-05 0.050053798 -0.040878035 -0.041632045
0002d0 66 73 3e 3d 04 9b 1a bf a0 2b 91 bc 17 c3 4f 3e
       0.04649677 -0.60392785 -0.017720997 0.20289265
0002e0 80 56 b5 bd 9a 7a 80 bf b0 8c 0b bc ce f1 49 bf
       -0.08854389 -1.0037415 -0.008517429 -0.7888459
0002f0 55 01 87 be 04 c1 0a bb 5c cc 8f 3e 98 79 b5 3e
       -0.26368204 -0.0021172175 0.280856 0.3544433
000300 44 14 db 3c c2 3b 1e bc 90 d2 9a be b3 4f 4d 3d
       0.026743062 -0.009657802 -0.3023877 0.050124835
000310 45 0a 0b 3e 82 20 fa 3d b5 35 43 3e a4 73 ba be
       0.13578136 0.122132316 0.19063456 -0.36416352
000320 82 0b fb be f4 69 a9 bc 19 9f b3 be d4 cb 83 bf
       -0.49032217 -0.020680405 -0.3508232 -1.0296578
000330 16 45 dd 3d 2d 5b a3 bd 67 d1 c9 3d e7 74 2a 3f
       0.10804193 -0.07976375 0.098543935 0.6658463
000340 bf 22 93 be 81 63 87 bd 53 ed 46 bd 8b 36 36 3e
       -0.28737447 -0.06610776 -0.048566174 0.17794244
000350 e9 cb e4 3d 8e 97 dd 3d 26 1a 4d bd 88 16 9d bd
       0.11171705 0.108199224 -0.050073765 -0.07670313
000360 3c eb 60 3f ea 8a 54 3e 0c 7c 40 3e 68 20 19 bf
       0.8785894 0.20756117 0.1879732 -0.59815073
000370 bb a6 9b 3e fd 50 8b be 5c 91 87 be 72 01 72 3e
       0.30400643 -0.27210227 -0.26478088 0.23633364
000380 a0 ae 48 bf f5 7c ab bc d5 63 96 3d 1e 24 da bc
       -0.78391457 -0.020933608 0.0734326 -0.02662855
000390 42 32 04 3d eb 46 cf be a2 28 05 3d a7 f0 67 bd
       0.032274492 -0.40483794 0.032509454 -0.05662599
0003a0 52 f8 a2 bd 23 12 73 bd 4f 3b 27 be ac de 7f 3e
       -0.079575196 -0.05934347 -0.16331218 0.24987286
0003b0 26 3d 2b 3f 94 b0 e6 3e 9e 8b 25 3d 8a c2 c3 3e
       0.6689018 0.45056593 0.040416352 0.3823436
0003c0 02 30 28 3d b7 b2 dc 3d d3 36 6b bd 04 8d 61 bd
       0.04106141 0.10776275 -0.05742533 -0.055066124
0003d0 2a 6f 82 3c 17 f4 96 3d 8e 49 76 be 2d 0a d3 3d
       0.015922148 0.07370775 -0.24051496 0.10304675
0003e0 96 99 5d be 4f 0a cb bd 53 6a bf 3e 26 01 5e bd
       -0.2164062 -0.099140756 0.37385806 -0.054200314
0003f0 c5 1b ba be 77 98 39 bd 24 7b 7c 3d 7f ad 97 3e
       -0.3634931 -0.045311417 0.061640874 0.29624555
