NNs and Implementation in microprocessor/2_80_80_model.pkl (torch_old, 42384 bytes, 4 tensors)

fc1.weight f4 [80, 39]
000000 d3 99 8a bd ef 15 53 3e 71 e2 77 3e 40 f3 b5 bd
       -0.06767621 0.20613836 0.24207474 -0.08884287
000010 3d 4c 31 be 2a 6a 52 3e 5f fb eb be 5f 34 24 3d
       -0.17314239 0.20548311 -0.46090218 0.040089007
000020 bc 1f 02 be c2 2e e6 3d 4f 22 45 be d5 cc 33 3e
       -0.12707418 0.11239387 -0.19251369 0.17558606
000030 21 27 b7 bd b3 8b f0 3d 2b 66 57 be a1 e3 1c 3e
       -0.0894301 0.117453955 -0.21035068 0.15321209
000040 e0 bf 36 3e 97 14 a2 3c 13 5f 8d bd 58 55 5a be
       0.17846632 0.019785209 -0.069028996 -0.21321619
000050 08 05 2e 3d 86 a3 51 be 5f ae 06 3e f5 37 3f 3e
       0.042485267 -0.20472535 0.13152455 0.1867369
000060 17 ab ee bd ff 0e 3d be 70 8f af 3d 2d 89 45 3e
       -0.116537265 -0.18462752 0.085722804 0.1929061
000070 d1 f7 26 bd 5d 3f 0c be ec 9f 54 3e 7c 34 a4 bd
       -0.04076368 -0.13696046 0.2076413 -0.08017823
000080 6d ab c1 3d 67 ee 34 bc 5a 36 8c be 6b 0e 0d be
       0.09456525 -0.011043168 -0.27385217 -0.13775031
000090 5a 51 b3 bd 0e 8d 84 3d f4 78 a1 3d 8d 89 81 3d
       -0.08755751 0.064722165 0.07884398 0.06325064
0000a0 53 16 6a be eb 76 86 bd cf 6c 6a 3d a2 73 1e be
       -0.22860079 -0.065656506 0.057232674 -0.15473798
0000b0 e0 3c 61 be 9a 6a 86 bd 02 24 6b be 07 97 07 3c
       -0.21995878 -0.065633014 -0.22962955 0.008275754
0000c0 66 a0 fa 3d aa 4e 5d 3e ed 9d fe bb 85 15 3e be
       0.12237625 0.21612039 -0.007770291 -0.18562897
0000d0 a0 50 43 3c a3 3f 15 bd 56 18 0d be ac 80 08 3e
       0.011921078 -0.03643764 -0.13778815 0.13330334
0000e0 99 91 a2 bd f4 7f 10 3e 4f 3b 02 3e e5 3a c8 3e
       -0.07937927 0.1411131 0.12717937 0.39107433
0000f0 84 c4 d4 3d 5c 9d 27 3e 7b 27 bf 3e bb 07 de 3c
       0.10389045 0.16368622 0.3733481 0.027103296
000100 16 e3 3a be 44 15 5f 3d d0 0a 0d be 38 c7 b6 bb
       -0.18250689 0.05446364 -0.13773656 -0.005577948
000110 66 07 4a 3e 14 af 96 3d 5e 1a 8e 3e d5 48 9f 3e
       0.19729385 0.07357612 0.27754492 0.31110254
000120 d4 9f 2d be 22 1e 65 3e ec 79 04 3e cc ee 54 be
       -0.16955501 0.22374776 0.12937135 -0.20794219
000130 8b a6 6f 3d f7 e3 d1 bd 24 8a 11 3d 73 fc 0e be
       0.058508437 -0.10248559 0.03553213 -0.13963489
000140 f0 fc 83 3d 68 fd c5 bc 9a 21 be bd a0 06 42 3c
       0.064447284 -0.024168685 -0.09283753 0.0118424
000150 cd f4 c8 bd 7e dc 34 bd 9a 2b 20 3e 14 16 bc 3d
       -0.09812317 -0.04415559 0.15641633 0.091838986
000160 9c 5d 10 3e ec c2 e7 bd b0 1d a9 bc 6e 53 16 3e
       0.14098209 -0.11316475 -0.020644039 0.14680263
000170 aa b8 23 3e e6 78 86 3d 21 fe 22 be 80 d1 05 3d
       0.15988412 0.06566028 -0.15917255 0.032670498
000180 a0 23 89 bd 78 ec bc 3d 20 cf 98 3d 1a 1f b6 3d
       -0.06696248 0.0922479 0.07461381 0.08892651
000190 73 ac 0f be 90 98 e7 3c 10 63 dc bd e8 2d 27 bd
       -0.14030628 0.02827099 -0.10761082 -0.040815264
0001a0 90 a0 2b 3d 3c 8f d8 bd bd ec ae bd 16 e0 21 bd
       0.04190117 -0.10574195 -0.08541248 -0.039520346
0001b0 a8 86 11 3e 70 0b 87 3d ec 7f 16 be 9b 36 8e bd
       0.14211524 0.065939784 -0.14697236 -0.06944009
0001c0 08 d7 03 3e 68 f5 4f bd a6 ed 61 bd 50 cb 18 3c
       0.12874997 -0.050771147 -0.05515828 0.009325817
0001d0 90 ff ee 3c a3 5e a2 bd 06 5f 2e 3e 9a d0 db 3e
       0.029174596 -0.07928207 0.17028436 0.42932588
0001e0 50 35 0c 3e 10 16 6e 3e 9d d1 dd 3b 76 a6 90 3d
       0.13692212 0.23250604 0.0067693726 0.07063
0001f0 76 5b 8e 3e d8 10 c4 bd 08 2f 22 3e 97 c0 01 3d
       0.27804154 -0.09573525 0.15838253 0.03167781
000200 59 bc 64 be 39 98 db bd fc f5 94 3d dc 7a f5 3c
       -0.22337474 -0.107223935 0.0727348 0.02996581
000210 3e 7e 75 3c 0f c9 8a bd 66 13 85 be c3 22 5f bd
       0.014983712 -0.0677663 -0.25991362 -0.05447651
000220 19 c0 c9 3c 1d ad 90 be 17 43 7e be 17 65 28 be
       0.024627732 -0.28257075 -0.2483028 -0.16444813
000230 8e 24 64 be 56 5b dd bd 48 9f 83 bc c2 69 59 3e
       -0.2227957 -0.108084366 -0.016067162 0.2123175
000240 3d ba c3 3d 1d 87 f3 bd 5d 64 e1 be d3 ba fe 3c
       0.095570065 -0.11891005 -0.44021884 0.031094944
000250 80 1e 0a 3e eb 2a 02 be 8d 19 65 3e 4d 7b 06 3e
       0.13488197 -0.12711684 0.22373028 0.13132973
000260 1e af b1 3e 6e 49 30 3d bf 4c f5 3d b1 52 33 bd
       0.34703916 0.043038778 0.11977529 -0.043780033
000270 83 f2 da bd 72 d0 27 3f 04 d9 15 3d 7e bc aa 3e
       -0.10690787 0.6555244 0.036583915 0.33346933
000280 88 0c 23 3e a5 9d ef 3d bd 26 3a 3e 80 b3 bd bd
       0.15922749 0.1169999 0.1817884 -0.092627525
000290 8c ca f9 bc 91 20 16 3e d5 fc 49 3d 0a fa 9b bd
       -0.03049209 0.1466086 0.049313385 -0.076160505
0002a0 25 40 d9 bc a3 d5 4b 3e 71 74 fb 3d 3a cc 0a 3e
       -0.026519844 0.19905715 0.12278069 0.13554469
0002b0 bd 94 77 3d 59 95 8c 3e e8 03 e1 3d 3a fe 97 bd
       0.060444582 0.27457693 0.10987073 -0.07421537
0002c0 d9 d5 a2 3d 6c 45 5d bd 28 a4 bb bd b9 11 ca 3c
       0.079509445 -0.054021284 -0.0916217 0.024666654
0002d0 7a 53 9c bd 73 f8 d8 3d ed f5 34 bd 9f 8b 1e 3e
       -0.076331094 0.10594263 -0.044179846 0.15482949
0002e0 6a 17 1a 3e 08 ce fd 3c c3 cf 88 3e 12 bf 9f 3e
       0.15047994 0.030982032 0.2672101 0.31200463
0002f0 0d c9 80 3e 50 0c 8c bd 48 d0 7f be bb e5 df 3d
       0.2515339 -0.06838286 -0.24981797 0.109324895
000300 0d a6 7e 3d 51 ba 0a be 50 0b 70 3d cb 23 fb 3d
       0.062170077 -0.13547637 0.05860454 0.12262686
000310 a8 fe 87 bd f0 da 2c be 2f e7 ca be dd 62 94 be
       -0.06640369 -0.16880393 -0.39629504 -0.28981677
000320 ff 3f 4f 3e 50 06 08 3d af b0 03 bd 2b 9f c8 3b
       0.20239256 0.033209145 -0.03215092 0.00612249
000330 c3 59 a9 3d b4 47 07 be 37 e6 f1 3d 7a 08 0a 3e
       0.08269074 -0.13210946 0.11811488 0.13479796
000340 9c 58 91 b9 b9 73 c9 3c 3b a4 20 3c 6c 80 05 3d
       -0.00027722574 0.024591314 0.009804781 0.032593176
000350 38 dc 75 bd 93 5c 09 3d 01 49 89 be 2c 86 6e bd
       -0.06002447 0.03353555 -0.2681351 -0.058233425
000360 2f 74 65 be c1 4f 0f 3e d6 b8 ed 3c 9b e6 55 bd
       -0.22407602 0.13995267 0.0290188 -0.052221876
000370 fd c2 8a be a5 3c 27 3d 86 a7 fe 3d 14 93 1d 3e
       -0.2710189 0.04082932 0.12434296 0.15388137
000380 72 ae d1 be f5 f8 96 3d 9d 78 97 be 5b f7 03 3b
       -0.40953404 0.073717035 -0.29584208 0.002013645
000390 04 4e 97 bd 32 9f 43 bc 6a a8 73 bd 19 25 c8 bd
       -0.07387927 -0.011939811 -0.059486784 -0.09772701
0003a0 ac 5d 83 be 2f 70 61 bb 44 13 b5 bd 85 66 d1 bd
       -0.25657403 -0.0034399142 -0.08841565 -0.10224632
0003b0 4c 78 af 3d 0c d2 c0 3d 0a f2 d4 bd 04 01 10 be
       0.08567867 0.09415063 -0.10397728 -0.14062887
0003c0 ba 12 23 3e f4 da c9 3d 65 55 1d be d0 c1 ba 3d
       0.15925112 0.09856215 -0.15364607 0.09118998
0003d0 c8 d1 d9 3c 80 a1 0e bd fa 0b fe bd f2 91 b1 3d
       0.02658929 -0.034821987 -0.12404628 0.08670415
0003e0 74 84 01 3d bc 7a a0 3d 36 e2 10 3e 00 6f c2 bc
       0.031620458 0.0783591 0.14148793 -0.02373457
0003f0 c0 64 dd 3b d0 2e 99 3d b0 bd 24 bc 94 6a 80 3d
       0.006756395 0.07479632 -0.010054991 0.06270328

fc1.bias f4 [80]
000000 93 c9 0c 3e d8 1e ee bd 83 31 08 be b7 1f 90 bd
       0.1374877 -0.11626977 -0.13300137 -0.07037299
000010 55 25 89 3c 1c 40 59 3e b0 19 e2 3d ad d4 4a 3c
       0.016741434 0.21215862 0.11040056 0.012379807
000020 81 a1 18 3d 5b 77 09 be a3 d1 1f be 4b bf 7c bd
       0.037263397 -0.13424437 -0.15607314 -0.06170587
000030 7a e9 b1 bd 22 05 97 3d 20 c0 9d 3d d5 43 fa 3d
       -0.0868711 0.07374026 0.077026606 0.12219969
000040 b4 9c 06 be 36 40 34 bd 1b b8 a4 bd 8d 58 af bd
       -0.13145715 -0.04400655 -0.08042928 -0.085618116
000050 91 53 8a bd 3d e3 e2 bd 86 40 b9 3d 24 9d 61 3d
       -0.0675422 -0.110784985 0.0904551 0.0550815
000060 93 66 a8 3d 62 3d 88 3a fc 80 d9 3d f9 5c 97 bd
       0.082226895 0.001039427 0.10620305 -0.0739078
000070 30 9a 16 3e 1d 89 b6 bd 9c 88 8b bc cf 82 4f 3b
       0.14707255 -0.08912871 -0.017032914 0.0031663661
000080 e7 26 07 3e e2 bf a6 bd 39 f4 e8 3d 8d 04 21 3e
       0.13198434 -0.081420675 0.11374707 0.15724392
000090 eb a0 15 3e 7c 47 79 bd 00 35 92 3d 83 47 9d bd
       0.14612167 -0.06085919 0.07139015 -0.076796554
0000a0 88 ff 6f 3d af 91 9b 3d 0b b0 99 3c 40 c7 ca 3d
       0.058593303 0.07596146 0.018760702 0.09901285
0000b0 fe fa 14 3e c3 fc 16 3c ca 87 c3 bc 2a 4b c6 bd
       0.14548871 0.0092155365 -0.02386846 -0.09682305
0000c0 bd dc de 3d ec b6 c1 3d f2 6b 94 bd 6a e3 1a be
       0.10881946 0.09458718 -0.072471514 -0.15125814
0000d0 29 c3 0d bc 0b 89 a3 3d e8 ac 16 3e 22 5d 9e bc
       -0.008652487 0.07985123 0.14714396 -0.019331519
0000e0 be e9 10 3e 39 f5 d3 bd 2a b6 36 3e 00 00 5b b9
       0.14151666 -0.10349507 0.17842928 -0.00020885468
0000f0 e9 d8 a2 bd 71 1c 81 3d ce d4 7d bd 32 4f 1f 3e
       -0.079515286 0.06304253 -0.061970524 0.15557554
000100 25 f0 c7 bc ff 92 e5 3d bb 61 a7 bc 0a d0 1e bd
       -0.024406502 0.11209678 -0.020432344 -0.03877262
000110 5b ed 15 3d c2 5a eb bd 4d 6f ba 3c a8 40 11 be
       0.036603313 -0.1149192 0.02275815 -0.1418482
000120 59 af e9 bc 41 e0 80 bc f1 4a 05 bc f3 2e 4d 3e
       -0.028525995 -0.015731933 -0.008135543 0.20037441
000130 38 f5 e1 3d 2d f7 1b 3e 01 e0 a6 3d cc 57 87 3d
       0.110331 0.15231009 0.08148194 0.06608543

fc2.weight f4 [80, 80]
000000 8c 8f 76 3d 90 08 dc bd 00 e8 58 3b 84 df 9e bd
       0.06019549 -0.10743821 0.0033097267 -0.07757476
000010 63 3b 61 3c 44 40 13 3e e0 84 4c bb 30 30 4c 3d
       0.013747069 0.14379984 -0.003120713 0.049850643
000020 7a 17 60 ba 2b 71 92 bd f5 f3 16 3d 2e 41 d1 3e
       -0.000854842 -0.07150491 0.03685375 0.4087004
000030 eb 74 34 3d 5b dd 14 3e e7 ab 5c bd 29 bb 77 bc
       0.044056814 0.14537565 -0.053874876 -0.015120306
000040 3a f2 32 bd 5e 33 bf bd 1c 69 6d bd f3 c1 7c bc
       -0.043688037 -0.093359694 -0.05796157 -0.0154271005
000050 5f e4 ba 3e 8d 42 8c 3b fa d3 a9 bd d7 ee cf bd
       0.36502358 0.0042803944 -0.082923844 -0.10152977
000060 d8 75 05 be 31 57 cd 3e 1d aa 4f bd 00 36 b7 3e
       -0.13033235 0.40105584 -0.050699342 0.35783386
000070 cc bd 81 3d fe df d9 3c d7 4e 22 3e b7 4c cd 3d
       0.06335029 0.026596066 0.15850388 0.10024398
000080 de 3b 40 bd ce 0f 81 bd f8 4f 5d 3d b9 f5 91 bd
       -0.046932094 -0.06301843 0.054031342 -0.07126946
000090 1c 70 78 bd f2 8f fa bd 04 5b ca 3d ae 14 7e 3e
       -0.06065379 -0.12234487 0.09880641 0.24812576
0000a0 18 9c 3f bd c5 98 17 3e 98 1b 82 3e 3c e8 55 3d
       -0.046779722 0.1480437 0.25411677 0.05222343
0000b0 e9 94 3d bd 06 6f 1b 3e ea 77 ed be 9a 48 2b 3e
       -0.04628459 0.15179071 -0.4638055 0.16726914
0000c0 f8 c4 fd 3d 32 1c db 3d 14 ea 94 bb 62 db 58 3e
       0.123910844 0.10698737 -0.004544506 0.21177438
0000d0 20 63 21 3d 76 fc e5 3c 36 f5 0f bd 97 81 41 3d
       0.039401174 0.028074484 -0.03514596 0.047242727
0000e0 3a 97 d3 3d 7b c1 92 bd e7 52 97 bd 48 19 56 3c
       0.103315786 -0.0716581 -0.07388859 0.013067551
0000f0 e1 fb 11 bd 03 60 b1 bd a0 e9 4d 3c e8 09 bf bd
       -0.0356406 -0.08660891 0.012567908 -0.09328061
000100 3c 8e 92 3b b6 a8 de 3d 4a 79 a1 3e 72 f8 24 3d
       0.004472522 0.10872023 0.3153785 0.040276
000110 b8 5b 92 bd bf 17 4d 3d 9d bf df bb c8 0d a8 3c
       -0.071464 0.050071474 -0.006828262 0.020514384
000120 fe 9c a0 be 2b 41 c7 3d 83 58 15 be 54 34 26 3d
       -0.31369776 0.09729227 -0.14584546 0.040577248
000130 80 a4 0b bf 21 e8 3e 3c 59 40 61 3d 0d 8f 6f bd
       -0.5454788 0.0116520235 0.054993007 -0.058486033
000140 aa 22 8a bd 3c 0e 8e bd 0f a0 7a bd 89 c2 9c 3c
       -0.06744893 -0.06936309 -0.0611878 0.01913573
000150 04 98 f6 bd 6e 62 c3 3d 1c e0 97 3d a0 a1 32 3d
       -0.120407134 0.09540258 0.07415792 0.04361117
000160 81 fd 5b 3b 72 92 bf 3d e4 57 97 3b c4 36 3b 3d
       0.0033567848 0.09354104 0.0046186317 0.045706525
000170 97 47 83 3b 08 dc b1 bd 2f e0 e5 bc fc 48 69 bc
       0.004006337 -0.08684546 -0.028061 -0.014238592
000180 aa d0 d0 3d 04 04 ae 3d cc 21 e4 3d 9b b1 5d 3c
       0.101960495 0.0849686 0.11139259 0.013531114
000190 58 88 05 be 7c 89 9a bc 4e 6f 13 bd 90 2b e6 3c
       -0.13040292 -0.018864386 -0.03599482 0.028096944
0001a0 4d 56 cd bd cc a8 bc bd 70 43 fe bd 35 99 a5 bc
       -0.10026226 -0.09211883 -0.124152064 -0.020214656
0001b0 fc ee 9a bd b4 92 74 bc 27 59 23 3d 6c 95 91 3d
       -0.07565114 -0.014927555 0.039879944 0.07108578
0001c0 34 3e c8 bd 60 c5 94 bd a0 00 0f 3d ae 45 70 3c
       -0.09777489 -0.07264209 0.034912705 0.01466505
0001d0 fe 55 86 3d 20 33 b5 bd 44 c0 d0 3d 64 ff a6 3d
       0.065593705 -0.08847642 0.10192922 0.08154181
0001e0 0a ea 34 bd c7 d9 6c bd f3 96 bf bd 95 cd 51 bd
       -0.04416851 -0.057824876 -0.09354963 -0.05122145
0001f0 6c bf 8b bd 8b d9 83 bd b7 94 df bd 0b d9 be bd
       -0.0682362 -0.064379774 -0.10917037 -0.093187414
000200 c6 e2 9e 3d ac 11 c3 3d 7a e0 ed 3c 2f ea 87 bd
       0.07758097 0.09524855 0.029037703 -0.06636464
000210 39 94 85 bd 28 fa a1 3d c6 cb b4 3d 01 89 1b 3d
       -0.06522412 0.07909042 0.08827929 0.037972454
000220 fb e5 a8 bd 30 58 02 3c 80 b0 08 be 62 89 81 bd
       -0.0824699 0.007955596 -0.1334858 -0.06325032
000230 70 c6 b1 3d b9 cc 02 bd 02 74 28 bd bb b3 3d 3d
       0.08680427 -0.03193352 -0.04112626 0.046313982
000240 f6 08 a5 bd 69 2f 95 bd 51 61 5f 3d db 54 89 bc
       -0.0805835 -0.072844334 0.054536168 -0.016764095
000250 2f 2d c4 3d 5a 32 31 bd cf cf b2 bd 23 61 41 3d
       0.095789306 -0.04326091 -0.087310426 0.047211777
000260 8c 62 bf bd 64 94 12 3d 9a c8 41 bd 9d 33 d1 bd
       -0.09344968 0.035786048 -0.04731045 -0.102149226
000270 0e 66 c6 3d e8 ca 86 3d 10 2a aa 3c c8 54 12 3c
       0.09687434 0.0658167 0.02077201 0.008931346
000280 2a bd 32 3c d8 04 14 3d 30 56 dd 3c a2 81 9b 3d
       0.010909358 0.03613743 0.027018636 0.07593085
000290 34 a4 44 3e af 33 99 be e0 b8 57 bb 1f 0e 39 be
       0.19203264 -0.29922244 -0.003291659 -0.18071793
0002a0 c0 b7 18 3e c0 a7 22 bd 6e fc 24 be 59 d3 61 3e
       0.14913845 -0.03971076 -0.1611192 0.22053279
0002b0 ba d0 16 3e 58 c9 d3 3d 45 91 5a 3d 0c a8 13 3e
       0.1472806 0.10341138 0.053361196 0.14419574
0002c0 19 ab d0 bd f0 33 c6 3c 80 f1 30 3a 3d 3d 0b 3e
       -0.10188884 0.024194688 0.00067498535 0.1359758
0002d0 22 78 af bd 91 fa 8a bd ad a7 7b 3d 4c 26 d2 3d
       -0.085678354 -0.06786073 0.061439205 0.10261211
0002e0 d0 ac c2 3d d9 d8 cb 3d 4b f1 a2 bd c3 8e 2a 3e
       0.095056176 0.0995347 -0.07956179 0.16656022
0002f0 28 2e c0 3c bd 3b 86 be 8c b2 33 be 66 1c a2 3d
       0.023459509 -0.26217452 -0.17548579 0.07915573
000300 a2 5c fe bd b2 85 23 bd cb ee 7e 3e 66 b9 3f be
       -0.12420012 -0.039922424 0.2489578 -0.18723068
000310 9a 13 a2 3d 25 82 8e bd f8 c8 d0 bd 19 4b 1b be
       0.07913895 -0.06958417 -0.10194582 -0.15165366
000320 f2 dd d0 3d eb 3b 5f 3e 90 6b 8c 3e c9 2e b5 bd
       0.10198583 0.218002 0.27425814 -0.08846814
000330 6a 6b 96 3d 5f b6 24 be 9e 50 18 3f 36 5b 38 3e
       0.07344706 -0.16085194 0.5949801 0.18003544
000340 8e 08 ef bd 24 d2 7f bd 0c cc bd bd 10 5e 82 bd
       -0.116715536 -0.062456265 -0.092674345 -0.06365597
000350 f9 ef 1b 3c be ed bb 3d e0 0c 4d bb 54 c1 8e 3d
       0.009517663 0.09176205 -0.0031288192 0.06970468
000360 e8 89 ad bd 04 cb 4b be 5f ed da bb e0 10 36 bc
       -0.08473569 -0.19901663 -0.006681129 -0.011112422
000370 69 d1 ad bd ce c9 2b 3d 28 07 4b 3d 63 dd 7d 3c
       -0.084872074 0.041940503 0.04956737 0.015494677
000380 a9 56 60 3e 2f c6 9b bd 65 42 1b bd 16 62 07 be
       0.21908058 -0.0760616 -0.037905116 -0.1322101
000390 16 0a f4 3d 1c 92 f1 bd 98 df 6e bd cd 58 0a bd
       0.11915986 -0.11795446 -0.058318704 -0.033776093
0003a0 6f e9 fc bc ce 21 bf bd 40 23 96 3d 43 af f2 bb
       -0.030873029 -0.093326196 0.07330942 -0.0074061467
0003b0 5d b9 b0 3e 08 61 1b 3c 5e 93 9c 3d db 1c 6e be
       0.3451642 0.009483583 0.076452956 -0.23253195
0003c0 b3 84 65 bd b7 a1 00 be 6e 4f c5 3d 4b 1f 35 bd
       -0.056034755 -0.1256169 0.09634291 -0.044219296
0003d0 1a 97 49 bc 52 1f 52 bd 78 42 da bd 1d bb 21 3d
       -0.012304092 -0.0512994 -0.10657209 0.039485086
0003e0 96 66 a4 bd 20 2f 3e bd 45 01 e3 bd 58 2d 7c bd
       -0.08027379 -0.04643166 -0.110842265 -0.06156668
0003f0 a4 9f 91 3d a9 c1 08 be b9 04 2c 3e af e9 a7 bd
       0.07110527 -0.13355125 0.16798677 -0.081988685

fc3.weight f4 [10, 80]
000000 78 54 aa bc 2e 97 b0 bd 8c d5 d9 3e 7f bf 33 3d
       -0.020792231 -0.08622585 0.42545736 0.043883797
000010 85 94 d6 bf b4 96 66 3d 76 82 22 bf f8 36 d0 bd
       -1.6764075 0.056296065 -0.6348032 -0.101667345
000020 b0 24 50 3e 87 6a db 3d ed c3 91 3d bf 70 28 3d
       0.20326495 0.10713678 0.07117448 0.041123148
000030 06 2f 0c bf 3e 66 3f be a4 38 b1 3e 8e 70 14 bf
       -0.5475925 -0.18691346 0.34613526 -0.57984245
000040 74 92 92 be f2 70 cd 3b ea 55 87 be aa 00 25 3c
       -0.2862736 0.0062695676 -0.26432735 0.010070959
000050 95 39 e0 3c be cc 3b be cc 7b 5a bf 9f 06 7f bc
       0.027371207 -0.18339822 -0.8534515 -0.015565543
000060 fa 55 81 be 4b 8f 59 be d5 01 58 bd f3 3b a0 3e
       -0.25260907 -0.21246068 -0.052736122 0.31295738
000070 9d 50 db be 65 4e 09 bd 5b db 19 be a1 6d 1c 3d
       -0.4283494 -0.03352203 -0.15025084 0.038190488
000080 f4 85 c3 3d 78 72 6e 3d 3b e0 1b be 37 44 e1 bd
       0.09547034 0.058214635 -0.15222256 -0.10999339
000090 e2 14 17 bf d0 92 8f 3e 56 d6 99 3c e9 5a ca 3e
       -0.5901624 0.28041697 0.018778961 0.39522484
0000a0 46 37 ce 3c c3 17 2a 3e 7b aa 8f 3d d6 6a be 3d
       0.02517284 0.16610627 0.070149384 0.09297721
0000b0 ff 29 0f 3f 9e 32 d7 bd 24 42 47 bf 9a e5 5f 3d
       0.55923456 -0.10507701 -0.778353 0.054662324
0000c0 92 a8 af bd f6 5b 8a 3c 58 84 d5 be 48 8d c4 3e
       -0.08577074 0.016889554 -0.41702533 0.3838904
0000d0 7c 36 ba bd f7 46 8b be 0e 0a 62 be 7d f2 66 3e
       -0.09092423 -0.2720258 -0.22074148 0.2255344
0000e0 3b 3d ca 3d c2 b3 97 bd ef d7 a5 be 79 58 8b 3e
       0.0987496 -0.07407333 -0.32391307 0.27215937
0000f0 21 fe d2 be 06 a3 c7 3b a4 88 ab be f3 a2 84 bf
       -0.4120951 0.006092432 -0.33502686 -1.0362228
000100 64 01 33 bd c6 51 30 3e 9a 1c 9e 3d 9e c4 37 be
       -0.043702498 0.17218694 0.07720299 -0.17946097
000110 0c 2e bf bd 6d 8f 84 3e ea 61 fc 3d b1 36 d1 bd
       -0.093349546 0.25890675 0.12323363 -0.1021551
000120 f6 73 69 be 09 7d cc 3e 0d 7b 76 bd 62 b0 90 bd
       -0.22798142 0.39939144 -0.060175944 -0.07064892
000130 f4 fa 88 be 04 3a 58 3d 2c 1f c8 3e 51 26 b9 3d
       -0.26753962 0.052789703 0.39086282 0.090405114
000140 d5 37 7a 3e 06 42 9c bd aa 36 7c be da b0 b9 3d
       0.2443536 -0.076297805 -0.24630228 0.09066935
000150 14 82 fc 3e ff 55 e0 3d 6e 23 a2 3e 9b ed e9 3d
       0.49317992 0.109539025 0.31667656 0.11422273
000160 53 a6 06 bf 4b 46 2d 3e 86 e4 8c 3c dc 0f 60 be
       -0.5259754 0.16921346 0.017198812 -0.2188105
000170 23 26 d1 3e d5 80 1d be 5e e8 07 3e b7 e5 a0 3e
       0.40849409 -0.15381177 0.13272235 0.3142526
000180 36 89 85 3e c3 3c b0 3d 25 4c 87 be f8 9d 7c bd
       0.26081246 0.086053394 -0.2642528 -0.06167409
000190 3d 28 5a 3e 36 67 6e 3d f3 c3 52 3d fd fe 4c 3e
       0.21304412 0.0582039 0.051456403 0.20019145
0001a0 9b fd 25 be c3 79 60 bf e2 0e 4f 3d 03 32 88 bf
       -0.16210024 -0.87685794 0.050551303 -1.0640262
0001b0 fa 8b 4d 3f b7 1b 0a 3c e3 29 cd 3d 92 8a aa ba
       0.8029171 0.008429459 0.10017755 -0.0013011268
0001c0 a4 04 c5 3d 03 a4 b6 3b 2e 7f 2b bd 4e 39 b0 3d
       0.09620026 0.005573751 -0.041869335 0.0860468
0001d0 5b b1 62 3e 9b 52 31 bd 9d 49 04 3e 7f 49 8e be
       0.22137968 -0.04329167 0.12918706 -0.27790448
0001e0 0f a6 9a 3d 44 1c 14 be 20 48 c2 be 13 ed e5 bd
       0.075512044 -0.14463907 -0.37945652 -0.11226859
0001f0 b8 25 d1 bd 34 58 30 3c 1f 0e 56 bf 19 65 be 3d
       -0.102122724 0.010763217 -0.836153 0.092966266
000200 1f f1 90 bd 66 e1 aa bd 26 65 f9 3d 15 e9 e6 bd
       -0.0707724 -0.083437726 0.12177496 -0.112749256
000210 ec 08 5a bf 6c f8 80 3c 0a 83 3d be cd 74 67 3e
       -0.85169864 0.015743457 -0.18507019 0.2260315
000220 02 46 61 be 58 72 5e be 60 1b 66 bd be 33 2e be
       -0.21999362 -0.21723306 -0.05617845 -0.17011926
000230 da f9 41 3c 75 94 c1 bb c1 fd 97 3c b7 54 1a bf
       0.011839354 -0.00590759 0.018553616 -0.60285515
000240 09 0b e2 3e f0 74 db be d2 51 4a be ca fb 7c 3d
       0.44149044 -0.42862654 -0.19757774 0.061763562
000250 d1 c4 59 3d 61 2b cb 3d 98 db 30 be 74 63 13 bf
       0.053166214 0.09920383 -0.17271268 -0.5757363
000260 14 b2 08 bf 4d d9 4b bf 9f 99 da bc b9 6c 2b 3c
       -0.53396726 -0.7962845 -0.02668458 0.010462933
000270 f2 7d 1e be d1 f9 35 3e 11 73 b2 3e ad 7a 08 3d
       -0.15477732 0.17771079 0.34853414 0.033320118
000280 be 98 a9 bd 88 8b 7a 3c 25 97 54 3e 4c 75 42 3d
       -0.082810864 0.015292056 0.20760782 0.047475144
000290 b1 d5 99 bd 4c cc 28 3e 6f e4 22 bf 50 e7 59 3c
       -0.075114615 0.16484183 -0.6362981 0.013299778
0002a0 cd ee db be ef d5 ac be 61 d4 2e 3d ac 8e 6b 3e
       -0.42955628 -0.33756968 0.04268301 0.23003644
0002b0 84 91 ad 3d da 7d 6d 3e 9b 81 1f bd 92 bf d3 3e
       0.084750205 0.2319254 -0.03894196 0.41357094
0002c0 b2 e4 0a bf 6f bb 5f 3d a2 6a 05 3e 33 d6 90 bd
       -0.5425521 0.05462211 0.13028958 -0.07072105
0002d0 23 d7 9b be 27 44 72 3e e0 e5 b7 3e 98 1c fe bd
       -0.30437574 0.2365881 0.35917568 -0.124077976
0002e0 ee 3d dc be b0 c4 6e be 1c 4e f5 bd 37 59 1e bf
       -0.43016 -0.23317218 -0.11977789 -0.6185488
0002f0 66 f7 43 bf d6 a9 b0 3d 7b 40 f3 bc e8 2b 1c 3c
       -0.76549375 0.08626144 -0.029693833 0.009531952
000300 09 3d 91 bd 01 a6 44 be e4 23 00 3e a7 34 96 3d
       -0.0709172 -0.1920395 0.12513691 0.073342614
000310 92 09 e5 3e b3 7c e7 bd 5c e9 73 bd 32 c7 ef bd
       0.44733864 -0.11303081 -0.05954872 -0.11707915
000320 11 75 90 bd 8e 92 4b 3e 61 04 7e 3e 03 06 22 bd
       -0.07053579 0.19880125 0.24806358 -0.039556514
000330 88 e8 b3 be 3f 68 cd bd 35 96 4e 3f 92 be 09 3d
       -0.35138345 -0.10029649 0.8069795 0.033629008
000340 59 e2 8b 3c 6b d8 da 3d 71 a1 21 bf b1 a5 00 3f
       0.017075704 0.1068581 -0.63136965 0.50252825
000350 14 fe c1 3d 82 23 e8 be 0c 81 d9 3d 91 4b 09 3d
       0.0947229 -0.4533959 0.10620317 0.03351933
000360 4b 4c 3a 3c 66 b8 af bd a3 ec c0 3e 35 cd 9d bd
       0.011370729 -0.08580093 0.3768054 -0.07705156
000370 e2 92 a6 be 5e 9e 9e 3c 7c f1 ba 3e ff e7 01 be
       -0.32533938 0.019362625 0.36512363 -0.12686156
000380 61 d4 dc 3e e5 43 38 3d 94 b0 7b 3d 07 50 81 3c
       0.43130782 0.044986624 0.061447695 0.01578523
000390 29 23 a7 3d 4e 36 b3 3e cb 2f 5c be 57 3b 11 bf
       0.08161003 0.3500237 -0.21502607 -0.5673117
0003a0 67 b5 71 be 2f 9e b0 3d 67 09 5b 3d f9 80 b8 bd
       -0.23604356 0.08623921 0.053475764 -0.090089746
0003b0 79 59 8e 3e 6e 2b 75 3d 8a 26 02 3f cc 1f 54 3e
       0.27802637 0.05985587 0.50840056 0.20715255
0003c0 20 15 38 bc 79 fe 80 bd f1 04 a1 bd 17 fd 97 3d
       -0.011235505 -0.06298537 -0.078622706 0.0742132
0003d0 31 fb 01 3c 5d be fe 3e 52 67 95 3e 00 1b de bc
       0.007933424 0.4975461 0.2918039 -0.027112484
0003e0 2b c9 2e be c2 d6 65 3e ba 41 70 39 80 95 31 be
       -0.17068927 0.22445205 0.00022912669 -0.17342186
0003f0 a8 6c 9b bd c3 3a 96 bd be 23 cb bd e3 f6 2d bf
       -0.07589084 -0.07335427 -0.09918927 -0.67954844
