NNs and Implementation in microprocessor/audio_model.pkl (torch_old, 20664 bytes, 3 tensors)

fc1.weight f4 [100, 39]
0	0xbdc730d7	-0.09726112
1	0x3d95bc3a	0.07311292
2	0x3bf3dac0	0.0074418485
3	0x3d7eef0c	0.06223969
4	0xbc797c60	-0.015227407
5	0x3e0f9f70	0.14025664
6	0x3d1c7564	0.03819789
7	0x3dcb1ab4	0.099172026
8	0xbbf94480	-0.007607043
9	0xbc8272c0	-0.015923858
10	0x3dd78bd0	0.10524714
11	0xbdfe940c	-0.124305815
12	0xbcb4aef8	-0.022056088
13	0x3e083748	0.13302338
14	0x3da723da	0.08161135
15	0x3df22278	0.11822981
16	0xbdbf1bfe	-0.09331511
17	0xbe0b4b36	-0.1360291
18	0xbd452a8e	-0.048136286
19	0x3d5a6284	0.053316608
20	0xbd03c524	-0.03217043
21	0x3d943a3a	0.07237668
22	0x3debe26c	0.11517796
23	0x3c9e7aa0	0.019345582
24	0xbcb94ef8	-0.022620663
25	0x3e10e14e	0.14148447
26	0x3dda82a8	0.10669452
27	0xbdfe503e	-0.12417649
28	0xbb2f10c0	-0.0026712865
29	0x3dcad8bc	0.0990462
30	0x3d4de76c	0.05026953
31	0xbd8d947c	-0.06913087
32	0x3db702f6	0.08936112
33	0xbd8b0d02	-0.067895904
34	0x3e0d011a	0.13769951
35	0x3e11047a	0.14161864
36	0xbde733ce	-0.11289178
37	0xbd2dc5ec	-0.04242508
38	0xbdf21dc6	-0.11822085
39	0x3bad0f1c	0.005281342
40	0x3d635a0b	0.055505794
41	0xbdc7e3ae	-0.09760223
42	0xbc87f943	-0.01659835
43	0xbd4d9af5	-0.050196607
44	0x3e193901	0.14963152
45	0xbd9ab5cb	-0.075542055
46	0x3dcd7e2b	0.1003383
47	0x3d9e9b7f	0.07744502
48	0x3d6bdd26	0.05758395
49	0xbd020e1d	-0.03175174
50	0xbe1b8ba0	-0.15189981
51	0xbe1bee2b	-0.15227573
52	0x3e21179f	0.15731667
53	0xbd9a3b80	-0.0753088
54	0xbdfe5f84	-0.12420562
55	0x3dd0e798	0.10200423
56	0xbd1c7a9c	-0.038202867
57	0xbd8d17c8	-0.068893015
58	0x3d2babe6	0.041911982
59	0x3e255bfd	0.16148372
60	0x37b61d30	2.1709682e-05
61	0xbca68ec0	-0.02033174
62	0xbe1446ed	-0.14480181
63	0x3c8c2702	0.017108444
64	0xbb9cad53	-0.004781404
65	0x3d50d024	0.05097975
66	0xbdbba2db	-0.091619216
67	0x3d8e2a2b	0.06941637
68	0x3cf424e7	0.029802753
69	0xbc377c2d	-0.011199039
70	0x3e1d1fe0	0.1534419
71	0x3e1f91b6	0.15582928
72	0xbd32e77a	-0.043677785
73	0xbe2fa7f1	-0.17153908
74	0x3da62a97	0.08113592
75	0x3d07c582	0.033147343
76	0xbdc75dc8	-0.09734684
77	0xbd8f8191	-0.07007135
78	0xbddc02a4	-0.10742691
79	0x3cd255b0	0.025675625
80	0x3cbd7a10	0.023129493
81	0x3de64600	0.1124382
82	0x3e09ccbc	0.13457006
83	0xbda7963c	-0.08182952
84	0x3c9e60d0	0.019333273
85	0xbdc7a62a	-0.0974849
86	0xbcbc0590	-0.022951871
87	0xbdb35536	-0.08756487
88	0x3d1d0f2c	0.038344547
89	0x3e0b422a	0.13599458
90	0x3e0dcf44	0.13848597
91	0xbdb04dae	-0.08608566
92	0x3d3d10f0	0.04615873
93	0x3dce1ad4	0.10063711
94	0xbc18f570	-0.009335861
95	0x3e0c1cd2	0.13682869
96	0xbd3f6994	-0.046731547
97	0xbe14839b	-0.14503329
98	0x3d14996c	0.036279127
99	0xbe1ec521	-0.15504886
100	0xbe198c86	-0.14995012
101	0x3e1c17a0	0.15243387
102	0x3d943f26	0.07238607
103	0xbdb450d0	-0.08804476
104	0xbde6f535	-0.11277238
105	0xbde7ee63	-0.113247655
106	0x3d2d4c40	0.042309046
107	0x3db972b0	0.09055078
108	0x3cbcd360	0.02305001
109	0x3d448f54	0.04798825
110	0x3ded28c8	0.11580044
111	0x3aa22680	0.0012371093
112	0xbdb08728	-0.08619529
113	0x3e12b0ea	0.143253
114	0xbe07d4dd	-0.13264795
115	0xbdc6c96f	-0.09706389
116	0x3d121380	0.035663128
117	0xbe123cf6	-0.14281067
118	0x3c907f00	0.017638683
119	0xbd833b58	-0.06407803
120	0x3d8d1606	0.06888966
121	0xbd892b88	-0.06697756
122	0x3e121b8e	0.14268324
123	0xbd210234	-0.03930874
124	0xbd9bfe17	-0.07616823
125	0x3dedfe84	0.11620811
126	0xbdef4e51	-0.116848595
127	0x3bfe0a40	0.0077526867
128	0xbdb27efa	-0.08715625
129	0x3d9f99f8	0.07793039
130	0xbd3add44	-0.04562117
131	0xbe12d703	-0.14339833
132	0x3d4975f8	0.04918477
133	0x3d427bf8	0.047481507
134	0xbd702dce	-0.058637433
135	0x3d9d42ec	0.0767878
136	0xbe17995c	-0.14804596
137	0x3d221f1c	0.03958045
138	0xbd4f4b40	-0.050608873
139	0xbe0419f9	-0.12900533
140	0x3d897b94	0.06713024
141	0x3dea082c	0.1142734
142	0xbde54548	-0.11194855
143	0xbd9b18d8	-0.07573098
144	0xbe172af3	-0.14762478
145	0xbc863b20	-0.016385615
146	0xbdbd039a	-0.092292026
147	0xbd07ecc8	-0.033184797
148	0xbdc0592d	-0.09392009
149	0x3d169984	0.036767498
150	0xbd705b72	-0.05868096
151	0x3d0c3500	0.034230232
152	0x3db5aee4	0.08871248
153	0x3d8cc534	0.06873551
154	0x3c735b70	0.014853343
155	0xbdeec022	-0.1165774
156	0x3d9373a8	0.07199794
157	0x3deb3864	0.11485365
158	0x3cfd1585	0.03089405
159	0xbd6fb637	-0.058523383
160	0x3d907bfe	0.070549
161	0xbde3710b	-0.111055456
162	0x3e1da1ae	0.15393707
163	0xbdb0515b	-0.08609267
164	0x3d8927ba	0.0669703
165	0x3d898861	0.06715465
166	0x3d201070	0.039078176
167	0x3dab980b	0.08378609
168	0xbcb16f45	-0.021659503
169	0xbdf10f62	-0.11770512
170	0xbc0d13b5	-0.008610656
171	0xbe0dafa8	-0.13836539
172	0x3bcbba2d	0.0062172622
173	0x3de6303a	0.11239667
174	0x3dd2d4c9	0.10294492
175	0x3e1468aa	0.14493051
176	0x3dd955ab	0.10612043
177	0xbdea537a	-0.11441703
178	0x3c58b942	0.013227763
179	0x3dfca749	0.123365946
180	0xbe0d093f	-0.13773058
181	0xbbaec7e8	-0.0053338893
182	0xbe083e41	-0.13304998
183	0x3cf75321	0.030191006
184	0xbd4967a0	-0.04917109
185	0x3d9b32a1	0.07578016
186	0x3e1f3a43	0.15549569
187	0xbd68491a	-0.05671034
188	0xbd923e5c	-0.071408
189	0x3d035a91	0.032068793
190	0xbdb7831e	-0.089605555
191	0x3dc6e906	0.097124144
192	0xbc9cf2ed	-0.019158805
193	0xbe2d23c4	-0.16908175
194	0xbe2e1079	-0.16998471
195	0x3d8a25c9	0.06745488
196	0xbdca37a3	-0.09873893
197	0xbdca5cf3	-0.0988101
198	0x3cfbfa72	0.03075907
199	0x3cabe5e4	0.020983644
200	0x3d8278a8	0.063706696
201	0x3df4ca19	0.119526096
202	0xbde564cf	-0.11200868
203	0x3d402d31	0.046918098
204	0xbdef10e0	-0.116731405
205	0x3dc008be	0.093766674
206	0xbdaac232	-0.08337821
207	0xbdb871a3	-0.090060495
208	0x3dc8f0ec	0.09811577
209	0x3de6a77a	0.11262412
210	0x3c57be0c	0.013167869
211	0x3dfb0564	0.122568876
212	0xbd04581f	-0.0323106
213	0x3e0a54c5	0.135089
214	0xbe0a4b8c	-0.13505381
215	0x3e0ac53d	0.13551803
216	0xbc82befb	-0.015960207
217	0x3d9df492	0.07712664
218	0xbd25b6de	-0.0404576
219	0xbc47abe5	-0.012186979
220	0x3dccb6c2	0.09995796
221	0xbdef26ac	-0.11677298
222	0x3cf4a2cf	0.02986279
223	0xbd07d9d1	-0.03316671
224	0x3e0f0d44	0.13969904
225	0x3ca8ae91	0.020591052
226	0xbce38445	-0.027773032
227	0xbcfcf7a1	-0.030879797
228	0x3e307cbe	0.17235085
229	0x3dd483b1	0.10376681
230	0x3db7e41b	0.089790545
231	0x3d492122	0.049103864
232	0x3d9f26b1	0.07771052
233	0x3d7b33a6	0.061328553
234	0xbe066427	-0.13124143
235	0xbd923de7	-0.07140713
236	0x3d08c5c8	0.033391744
237	0xbdcdfd58	-0.10058087
238	0x3b059300	0.0020381808
239	0xbac26f00	-0.0014834106
240	0xbdce97d0	-0.1008755
241	0xbddbc180	-0.107302666
242	0x3e0abefe	0.1354942
243	0x3dc38b08	0.095480025
244	0x3da163be	0.078803524
245	0xbd9a22b0	-0.07526147
246	0xbdeb7311	-0.114965566
247	0xbbe8c5a0	-0.007103637
248	0x3e1b12b8	0.1514386
249	0xbb1f1d00	-0.002427876
250	0xbcd088b8	-0.025455818
251	0xbe003421	-0.12519886
252	0xbc852788	-0.016254202
253	0xbe15e073	-0.14636402
254	0xbe16047c	-0.14650148
255	0xbcfa7658	-0.030574009

fc1.bias f4 [100]
0	0x3dbc5748	0.09196335
1	0x3c33c330	0.010971829
2	0xb94ac000	-0.00019335747
3	0x3d146eb0	0.036238372
4	0xbde71b42	-0.11284496
5	0x3d01fa22	0.031732686
6	0x3dcee5bc	0.10102412
7	0xbe21da05	-0.15805824
8	0x3ce19938	0.02753888
9	0x3b8a58e0	0.0042220205
10	0x3dd5b611	0.10435117
11	0x3e1e141f	0.15437363
12	0xbe2a300b	-0.1661989
13	0x3def910a	0.11697586
14	0xbd7f8f7c	-0.062392697
15	0xbd6a3c2b	-0.057186287
16	0xbd8b7650	-0.06809676
17	0x3d1aa086	0.037750743
18	0xbcbbd670	-0.0229294
19	0x3e1078f1	0.14108635
20	0x3d0d74a9	0.034535084
21	0x3dfe0652	0.12403549
22	0xbe080693	-0.13283758
23	0x3d7fe388	0.06247285
24	0xbd253410	-0.040332854
25	0x3e17f23f	0.14838503
26	0xbe14ab82	-0.1451855
27	0x3c922f28	0.017844751
28	0xbe04f058	-0.12982309
29	0x3c9b93c8	0.018991366
30	0x3e0489b2	0.12943152
31	0x3d4b6f88	0.04966691
32	0x3e040774	0.12893468
33	0x3d1ef70d	0.038809825
34	0xbe12e02d	-0.14343329
35	0xbda64662	-0.08118893
36	0xbca31543	-0.0199076
37	0x3e21ca0c	0.15799731
38	0xbbb8483e	-0.0056238463
39	0xbdf59555	-0.119913734
40	0xbe01cd06	-0.12675866
41	0xbbcb951e	-0.0062128445
42	0xbd578010	-0.052612364
43	0x3e18a1fa	0.14905539
44	0x3cdd6b74	0.027028777
45	0xbd8ad981	-0.06779767
46	0x3d1555a4	0.036458626
47	0xbd415792	-0.047202654
48	0x3cdbead4	0.026845373
49	0xbdf30ffd	-0.11868284
50	0x3e20abac	0.15690488
51	0x3c794d1d	0.015216139
52	0xbd99965b	-0.07499381
53	0xbd650849	-0.055916104
54	0xbe1e282b	-0.1544501
55	0x3dc6f590	0.09714806
56	0x3dbef17b	0.093234025
57	0x3cd79728	0.026317194
58	0xbcc340ad	-0.02383455
59	0x3dcd562b	0.10026201
60	0xbddcc45c	-0.1077964
61	0x3d989122	0.07449557
62	0x3da15ccc	0.07879028
63	0x3e0dc048	0.1384288
64	0xbdbfc160	-0.09363055
65	0xbc5b7346	-0.013394183
66	0xbcb54431	-0.022127243
67	0x3e08d7b2	0.13363531
68	0xbdb1e98e	-0.08687125
69	0xbdef635d	-0.11688874
70	0x3dcdc53e	0.100473866
71	0xbe074f59	-0.13213862
72	0x3db8773c	0.09007117
73	0x3d35b878	0.044365376
74	0xbdae79c4	-0.08519319
75	0x3e12756f	0.1430261
76	0xbdb072de	-0.08615659
77	0xbc70c42c	-0.0146952085
78	0x3ced8444	0.028993733
79	0xbbecfcb4	-0.007232273
80	0x3da1f903	0.07908823
81	0x3da90e5e	0.082546934
82	0x3c754803	0.014970782
83	0x3e17ee66	0.14837036
84	0xbe0e2dd5	-0.13884671
85	0xbdfd67f8	-0.12373346
86	0x3d6940fc	0.05694674
87	0x3d1ee2fe	0.038790695
88	0xbde74e32	-0.112942114
89	0xbc897c86	-0.01678301
90	0xbe06dfcb	-0.13171308
91	0xbda64ef2	-0.081205264
92	0x3d412a6c	0.047159597
93	0xbe1c8707	-0.15285884
94	0xbb4ee8c0	-0.0031571835
95	0x3dbccd2a	0.092188194
96	0xbd53face	-0.051752858
97	0xbe1d6710	-0.15371346
98	0x3de9a7ad	0.11408935
99	0x3d54a470	0.051914632

fc2.weight f4 [10, 100]
0	0xbcd95160	-0.02652806
1	0xbdf464eb	-0.11933311
2	0x3c99b60c	0.018763565
3	0xbbb37cd0	-0.0054775253
4	0x3c8f2677	0.017474396
5	0x3d947ce8	0.072503865
6	0xbd816882	-0.063187614
7	0xbbd008e0	-0.006348714
8	0x3dca0787	0.09864717
9	0xbd311533	-0.043233108
10	0x3d81ee7a	0.06344314
11	0x3db9271a	0.09040661
12	0x3d9e26cb	0.07722243
13	0x3d20dde6	0.03927412
14	0x3d14a499	0.036289785
15	0x3c9b42b0	0.018952698
16	0x3d503546	0.050832056
17	0x3d114187	0.035462882
18	0xbda66233	-0.08124199
19	0xbd33d83a	-0.04390738
20	0xbdc8cc20	-0.09804559
21	0xbd07aff9	-0.033126805
22	0xbd1fe7c5	-0.039039392
23	0x3d25c501	0.04047108
24	0x3d582344	0.052768007
25	0xbd0fc8a3	-0.03510345
26	0xbced46ad	-0.028964365
27	0x3dc5f2c6	0.09665446
28	0x3d87f9c7	0.06639438
29	0x3d38a905	0.045083065
30	0xbdd95879	-0.10612578
31	0x3d83db15	0.06438271
32	0x3dea9a13	0.114551686
33	0xbd5857e6	-0.0528182
34	0xbdc2d64e	-0.095135316
35	0x3cf2306e	0.029564109
36	0x3cf422cc	0.029801749
37	0xbcb3ca60	-0.021947086
38	0x3d903938	0.070421636
39	0x3d027eb6	0.031859122
40	0xb94bd940	-0.0001944052
41	0xbd9fe147	-0.0780664
42	0xbc8da297	-0.017289443
43	0xbdae36da	-0.08506556
44	0xbdbb499b	-0.091448985
45	0x3c3e943b	0.011632021
46	0xbd4fb06a	-0.05070535
47	0x3d65428e	0.055971675
48	0xbd2a53c5	-0.041583795
49	0xbda89827	-0.08232146
50	0xbc991722	-0.018687788
51	0x3d196040	0.037445307
52	0x3d95f9e6	0.07323055
53	0x3ca33cc9	0.019926446
54	0x3d15c0cf	0.03656083
55	0xbd0ddc14	-0.03463371
56	0xbe0e030b	-0.13868348
57	0x3d905bd3	0.07048764
58	0xbb40ee65	-0.002943897
59	0x3d399cc3	0.045315515
60	0x3d6c8a16	0.057748877
61	0xbd5a1a33	-0.05324764
62	0x3caffb78	0.021482214
63	0xbd7b3179	-0.061326478
64	0xbd86fbe1	-0.06591011
65	0xbd9b8c5c	-0.07595131
66	0xbdb04a4b	-0.0860792
67	0x3d074405	0.033023853
68	0xbd2ef509	-0.042714152
69	0x3d84d262	0.0648544
70	0x3c5f24ee	0.013619645
71	0xbb9f3050	-0.004858054
72	0x3b2fde43	0.002683536
73	0xbd4b176c	-0.049582884
74	0xbc9e906d	-0.019355977
75	0xb9be748b	-0.00036326455
76	0xbdad6590	-0.08466637
77	0xbdc0e154	-0.09417978
78	0x3c1156f5	0.00887083
79	0xbd9e41e7	-0.077274136
80	0x3b204cd8	0.0024459865
81	0xbb0d8d60	-0.0021599159
82	0x39b2dd00	0.00034115463
83	0x3d9baf49	0.07601792
84	0xbdb2680d	-0.08711252
85	0x3d7ff18c	0.062486216
86	0xbc2871f5	-0.010281076
87	0x3d0e74f2	0.034779496
88	0xba970b80	-0.0011523813
89	0xbccacfb6	-0.024757247
90	0x3db6f33b	0.08933111
91	0xbd8d327b	-0.06894394
92	0xbd9c1658	-0.07621449
93	0x3d68d82a	0.056846775
94	0xbd641707	-0.055686023
95	0xbd53aa80	-0.051676273
96	0x3da164af	0.07880532
97	0x3bd1c375	0.006401474
98	0xbd11b2a4	-0.035570756
99	0xbd72b7dd	-0.059257377
100	0xbdade213	-0.08490386
101	0xbd57696f	-0.052590784
102	0xbdabd09e	-0.083894
103	0x3ce29384	0.027658232
104	0x3c638995	0.013887783
105	0xbddc2586	-0.107493445
106	0xbd0d4300	-0.034487724
107	0x3b318b00	0.0027090907
108	0x3cb747c8	0.022373095
109	0x3c8ffe6c	0.017577372
110	0x3bff35b3	0.007788384
111	0xbc716b89	-0.014735111
112	0x3d001a4d	0.031275082
113	0x3d95c940	0.07313776
114	0xbdb76cd7	-0.089563064
115	0x3caf7621	0.021418633
116	0x3cb17900	0.021664143
117	0xbc491e02	-0.012275221
118	0x3bceaa00	0.0063068867
119	0xbdb7d237	-0.08975642
120	0x3dbb9a43	0.091602825
121	0xbe013e64	-0.12621456
122	0x3abcdedb	0.0014409678
123	0x3c124c3a	0.008929307
124	0xbd974c7a	-0.073876336
125	0x3d8993c9	0.06717641
126	0xbae7e4f3	-0.0017692134
127	0x3d7227d6	0.05912002
128	0x3d5fa26a	0.05459825
129	0xbd9ba049	-0.07598931
130	0xbd2fc02d	-0.042907882
131	0xbd55861a	-0.052129842
132	0x3d66a4e2	0.05630959
133	0xbd9e6716	-0.07734506
134	0xbd10453e	-0.035222284
135	0x3c7a6000	0.015281677
136	0xbb7340f5	-0.0037117575
137	0x3d10b126	0.035325192
138	0xbcbb369e	-0.022853192
139	0xbd8e25f8	-0.06940836
140	0x3d3187ad	0.04334228
141	0xbd9c5da0	-0.07635045
142	0x3d443878	0.047905415
143	0xbdb254cd	-0.08707581
144	0xbc89a9af	-0.016804544
145	0xbd14f5af	-0.036367115
146	0xbd9495d6	-0.072551414
147	0x3cecb196	0.028893273
148	0xbc6110ab	-0.013736884
149	0x3c0f5503	0.008748296
150	0x3d2514cb	0.040303033
151	0x3d0fb8de	0.035088412
152	0x3db15511	0.08658803
153	0x3dadcb32	0.08486022
154	0xbd5d8fd7	-0.054092254
155	0x3cd3f011	0.025871309
156	0xbdf6e9d8	-0.12056321
157	0x3db231e1	0.0870092
158	0x3d948622	0.07252146
159	0xbdd58ff6	-0.10427849
160	0x3d166b57	0.03672346
161	0x3d076eba	0.03306458
162	0xbc3987ac	-0.011323851
163	0xbdc2a0c0	-0.09503317
164	0x3d168f21	0.036757592
165	0xbd6ce0ce	-0.057831578
166	0xbc901b58	-0.017591164
167	0xbd05959f	-0.032613393
168	0xbc72ef70	-0.014827594
169	0xbb222d4c	-0.0024746237
170	0x3dc4f8af	0.09617745
171	0x3d113146	0.03544738
172	0xbd1a32b2	-0.037646003
173	0xbd6c868d	-0.057745505
174	0xbdda03e4	-0.10645273
175	0xbd821ab5	-0.0635275
176	0xbd28168d	-0.04103713
177	0x3d8f25cb	0.0698963
178	0xbd89bf3f	-0.067259304
179	0xbdc02f54	-0.09384027
180	0xbc02c6a8	-0.007981934
181	0x3cb10348	0.02160801
182	0x3d0867cd	0.033302117
183	0x3c62945b	0.013829316
184	0x3c519760	0.012792438
185	0xbdcd084b	-0.100113474
186	0x3dc677fb	0.09690853
187	0x3cba7b9e	0.022764023
188	0xbd552207	-0.052034404
189	0x3c5d5ac2	0.013510408
190	0x3d60e97e	0.054910176
191	0xbda037c2	-0.07823135
192	0x3c88bc7a	0.016691435
193	0x3d8877ec	0.06663498
194	0x3d33e046	0.043915056
195	0xbd12f379	-0.035876725
196	0x3db8ffc1	0.09033156
197	0x3d436f22	0.047713406
198	0x3c76ac64	0.01505575
199	0xbc1b52a8	-0.009480156
200	0x3d5d8282	0.05407954
201	0x3d37eb40	0.044902086
202	0x3d981909	0.0742665
203	0x3d729256	0.059221588
204	0xbd9d7a8b	-0.07689389
205	0xbda805b7	-0.08204215
206	0xbcc3c5a0	-0.023897946
207	0x3d899609	0.0671807
208	0x3d74fe0e	0.059812598
209	0xbd300397	-0.042972174
210	0xbda902e3	-0.08252504
211	0x3d54dee2	0.05197037
212	0x3d0369fb	0.032083493
213	0x3d816723	0.063185
214	0x3da8d0a9	0.08242924
215	0x3c933a67	0.017972184
216	0xbd8ac606	-0.06776051
217	0x3dafc37f	0.0858221
218	0x3d4a0572	0.0493216
219	0xbb6cdd0f	-0.0036142503
220	0xbdf21c9d	-0.11821864
221	0xbd63f226	-0.055650853
222	0xb9a9159e	-0.00032250298
223	0xbcdabf0b	-0.026702425
224	0x3d10cd65	0.03535213
225	0x3d4d5b57	0.050135937
226	0xbce99d32	-0.02851734
227	0xbcdc615c	-0.026901893
228	0x3d2c9082	0.04213
229	0x3c98b419	0.018640565
230	0xbd8ea0f5	-0.06964294
231	0x3bf968e0	0.007611379
232	0x3d7c55ce	0.061605267
233	0x3d18bb21	0.037287835
234	0x3c998635	0.018740753
235	0xbbaa832d	-0.0052036257
236	0xbd6e47ce	-0.058173947
237	0xbd94e7e0	-0.07270789
238	0xbdbf33bb	-0.09336039
239	0x3d8a295d	0.06746171
240	0xbdc37afe	-0.09544943
241	0xbcbff0f5	-0.023430327
242	0x3d9ed09f	0.07754635
243	0xbd01c1e0	-0.031679034
244	0xbce24c5c	-0.027624302
245	0x3cfe6d68	0.031058028
246	0x3d180c6a	0.037121214
247	0x3c6d366b	0.014478306
248	0x3da18efb	0.078885995
249	0xbd2c04e9	-0.04199687
250	0x3b047b05	0.0020214927
251	0x3c598a10	0.013277546
252	0x3cc31026	0.023811411
253	0x3c9624a3	0.018328017
254	0xbd9a6ba7	-0.07540064
255	0xbd5b9827	-0.0536119
