NNs and Implementation in microprocessor/demo_model.pkl (torch_old, 20664 bytes, 3 tensors)

fc1.weight f4 [100, 39]
000000 1a 9a 10 3e c6 79 1b be 1c c2 43 bf 71 50 91 be
       0.14121285 -0.15183172 -0.7646806 -0.28381684
000010 9c 04 dc 3d 51 be 65 3c 59 10 50 3e 58 bf c2 bd
       0.10743067 0.014022426 0.20318736 -0.09509152
000020 03 96 76 3d 10 14 77 3e 05 9e 97 bd 3f 82 30 3e
       0.060201656 0.24128747 -0.07403187 0.17237185
000030 99 1f 85 3d 80 92 09 bc b7 c2 fd bc 87 f0 6a bb
       0.065001674 -0.008396745 -0.030976636 -0.0035848932
000040 f0 80 c3 bc 72 83 b7 3e de de b3 3e 25 46 d5 3b
       -0.023865193 0.35842472 0.35130972 0.006508606
000050 28 86 88 3e 6c f6 4a bc 9f 6f 99 be 2b 53 6e be
       0.26664853 -0.012387853 -0.29967973 -0.23273914
000060 38 c0 b4 bd 7b a6 e2 bc b6 5c 2a 3d de ff 2e be
       -0.08825725 -0.027667275 0.041592322 -0.17089793
000070 19 70 c9 bd 59 73 93 be 43 ca ef bc cf 59 52 bd
       -0.09835834 -0.2879894 -0.02927125 -0.05135518
000080 53 b9 96 3e fb 45 d5 3d 3a de 07 3c cc 2f 6e 3c
       0.29438266 0.10413738 0.008292729 0.014537763
000090 de 87 15 bd 2f c5 9c bd d7 f5 fe 3c 14 2f ee bd
       -0.036506526 -0.07654797 0.031123085 -0.11630073
0000a0 c2 fe 96 3d f6 5d f3 bd f0 5a 25 bd 96 3c ac 3d
       0.0737281 -0.11883156 -0.040369928 0.08409993
0000b0 d4 41 f2 3d cc 25 47 3d 68 0e 08 3d 78 47 06 3e
       0.11828962 0.04862003 0.033216864 0.131132
0000c0 80 df f9 3d 14 ed 65 3d 00 5b b1 bb ee 63 d9 bd
       0.12200832 0.0561343 -0.0054124594 -0.10614763
0000d0 00 9b 23 3b e8 85 db 3c ee 41 a0 3d d7 9e d2 bd
       0.0024964213 0.02679725 0.07825075 -0.102842025
0000e0 0c e4 57 bd dc 66 c2 3d 68 99 d9 bc 12 a5 c5 bd
       -0.052707717 0.09492275 -0.026562408 -0.09650625
0000f0 80 5b 19 be a4 dc 94 3d db 05 af bd 5a b0 cd bd
       -0.1497631 0.07268646 -0.08546039 -0.10043402
000100 38 c8 b2 bc 40 04 b2 3b 52 c9 f8 bd 7c 41 6c 3d
       -0.021823987 0.0054326355 -0.12147774 0.05767964
000110 c8 86 1a 3d 16 51 b3 3d 7a e0 a9 3d 0a 6f 08 3e
       0.037726194 0.087557 0.08294769 0.13323608
000120 9c c3 0d 3e 7e 33 19 be ba 9f 05 be bc e9 10 be
       0.1384415 -0.14961049 -0.13049212 -0.14151663
000130 9c 44 a3 bd 00 62 25 3d 25 6b 1e 3e 05 6e ed 3a
       -0.079720706 0.040376663 0.1547056 0.0018114453
000140 d4 c6 6e be 24 02 7c 3e e9 48 fa bd 08 b9 44 bd
       -0.23318034 0.24610192 -0.12220938 -0.048028022
000150 b0 8a ee bd 42 b6 a5 be e5 07 a0 3e e2 49 0f bf
       -0.11647546 -0.32365614 0.31256023 -0.5597211
000160 36 ff cc 3b 15 17 13 bc 8d f8 9f be 4e 7e 45 bd
       0.0062560095 -0.008977671 -0.31244317 -0.048216157
000170 97 e8 9c bd b8 d9 06 3d de 29 3f be 96 6a f7 3d
       -0.076615505 0.032922477 -0.18668315 0.120808765
000180 c8 4e 0c bf af 42 00 3e 31 56 fe 3e 6f 0e 79 3d
       -0.5480771 0.12525438 0.49675134 0.06080478
000190 30 20 cc be 18 fe 24 3e 8e 68 17 3d 72 95 24 3d
       -0.39868307 0.16112554 0.036964945 0.040181585
0001a0 31 d6 ec bd 53 a2 1d be 08 f6 82 be 66 6d 19 be
       -0.11564291 -0.15393953 -0.25578332 -0.14983138
0001b0 a2 cc ab be 12 e9 8a 3e 7d 0e ab bd f6 95 ed 3e
       -0.3355456 0.27130944 -0.08352373 0.46403474
0001c0 09 a4 ee bd 53 70 bf 3e 2a 01 07 3f a4 1b 46 be
       -0.11652381 0.37390384 0.5273615 -0.19346482
0001d0 56 84 4b 3c 3b a7 97 bd 5c 00 2d 3d bc c8 90 3d
       0.012421688 -0.074049436 0.04223667 0.07069537
0001e0 4c a4 20 3e 9b e0 1d be 70 dc b1 3c 8c 0c da 3d
       0.15687674 -0.15417711 0.021711558 0.106469244
0001f0 6a fe 9f 3d d2 d4 03 3e e2 94 ad bd ff 93 04 be
       0.078121975 0.12874153 -0.08475663 -0.12947081
000200 f0 dc 0a be b8 e6 b6 3d 60 4d d3 3d 9e ae 17 be
       -0.13560843 0.08930725 0.103174925 -0.14812705
000210 a4 05 91 3d 0d b9 1f be f0 82 9c bc 21 c5 9a bd
       0.07081154 -0.15597935 -0.019105405 -0.075571306
000220 a6 00 6b bd 82 8b 84 3d 4c b8 fc bd 98 9c b6 3d
       -0.057373665 0.064719215 -0.12339839 0.08916587
000230 8c 6e 6a 3d 4c 2f 1e 3e 70 9f 9d bc 08 7b c1 3d
       0.057234332 0.1544773 -0.019241065 0.094472945
000240 32 0f 82 bd fd 91 b1 bd 04 9c cd 3d 01 17 1d be
       -0.063505545 -0.08670423 0.10039523 -0.15340807
000250 c4 c1 fd bd d0 3b df 3d 04 e7 64 3d ac 30 d6 bd
       -0.123904735 0.1090008 0.055884376 -0.10458502
000260 2c c2 06 bd 47 5d b7 bd 22 e0 a7 3d bc 60 23 bd
       -0.03290002 -0.08953338 0.08197047 -0.039887175
000270 1b dd c5 bc 1b 56 de bd f6 d2 78 3d 9d eb db bd
       -0.024153283 -0.10856267 0.060748063 -0.10738299
000280 69 5b f8 3d 81 a9 15 3e 4d a0 73 bd 21 63 da bc
       0.1212681 0.14615442 -0.059479047 -0.026658596
000290 54 6a 2e be 74 91 33 bc cc ad 92 3e 45 ab 2e 3e
       -0.17032748 -0.010959972 0.28648221 0.17057522
0002a0 ad 97 9d bd be f1 61 bd c4 31 42 be a1 21 eb 3c
       -0.076949455 -0.055162184 -0.18964297 0.028702559
0002b0 92 3a 5a 3e 27 93 40 be dd 5c 8c bd 3a ec 51 3d
       0.21311405 -0.18806134 -0.0685365 0.051250674
0002c0 2e 1b dc 3c f8 14 21 bd 1f 36 00 3d 69 1c 8b 3e
       0.026868429 -0.039326638 0.031301614 0.27170113
0002d0 1e d9 86 3e c3 3a 5a be a5 3c b2 3c 3a c2 9b 3d
       0.26337522 -0.21311478 0.021757433 0.07605405
0002e0 35 df f5 bd 95 1d 11 3e c7 65 9a be 73 c6 58 bd
       -0.12005464 0.14171441 -0.30155775 -0.05292363
0002f0 25 aa 4e bd ab d4 40 be 6b 14 21 bd 86 00 84 be
       -0.05045523 -0.18831126 -0.039326113 -0.2578165
000300 b4 3a 52 bd 94 9f 25 3d 54 f0 87 3a b5 d9 f3 3b
       -0.051325515 0.04043539 0.0010371306 0.007441724
000310 fe a2 d5 3d 61 14 9a 3e 04 5c 90 bd fc 11 5d 3d
       0.10431479 0.30093673 -0.070488006 0.05397223
000320 42 4b a2 3d 9f 74 03 3e 80 1e 94 3d 52 37 13 3e
       0.079245105 0.12837456 0.0723238 0.14376572
000330 bb 26 bb bc 54 43 3d 3c 0c 92 4e 3e 9a e0 8f 3c
       -0.022845617 0.011551697 0.201729 0.017563153
000340 27 be 70 3d 55 3e f6 bd ea 28 2e be 0d f6 99 bd
       0.058775093 -0.12023608 -0.17007795 -0.075176336
000350 ad 6d c8 bd b9 f2 b0 3d 83 1f 3a be 63 ac d2 bd
       -0.09786544 0.08640046 -0.18176083 -0.102867864
000360 6b d6 7d 3c d5 a7 8c 3d db 72 9d bd d4 8a 3d be
       0.015493016 0.06867949 -0.076879226 -0.1850999
000370 2e 81 11 be 95 7a 17 be 7d 74 35 3e 82 61 3c bb
       -0.14209434 -0.14792855 0.17720218 -0.0028744643
000380 ae 27 b9 bd 9e cf e0 bd 0a 99 c4 3c 0a b9 53 3e
       -0.090407714 -0.109771 0.023998756 0.20676056
000390 73 4e 2e be 48 40 a5 3d 84 67 0d 3e db 20 66 be
       -0.17022114 0.08068901 0.1380902 -0.22473471
0003a0 9d 2a 0d bc 12 d1 1d 3d 7f 74 80 bd f0 c9 12 bc
       -0.008616117 0.038529463 -0.0627222 -0.008959278
0003b0 c4 e9 e7 3d c0 66 0c 3b 38 d5 0e bd 87 f5 da bd
       0.11323884 0.0021423548 -0.03487131 -0.10691362
0003c0 88 c5 ff bc 5d c9 98 bd 30 8a 19 3e b0 3e 49 bd
       -0.03122212 -0.07460282 0.1499412 -0.04913205
0003d0 58 b0 2d bd f3 99 1c be 3b 85 99 bd 0c bb a7 3d
       -0.042404503 -0.15293102 -0.07496115 0.08189973
0003e0 58 a9 85 bc fa 84 83 3d d4 62 83 3d 50 45 09 be
       -0.016316101 0.06421848 0.06415334 -0.13405347
0003f0 68 4f 8a bc 7c 20 21 3d 22 21 05 3e ba f4 5c bd
       -0.016883567 0.03933762 0.1300092 -0.053944327

fc1.bias f4 [100]
000000 27 ad f0 bc d0 94 0e bd 87 b6 6c 38 78 3d f8 3c
       -0.02937944 -0.034809887 5.6436777e-05 0.030302748
000010 97 b7 1c bd 84 d8 27 be 14 f9 22 be c9 8b 99 3d
       -0.038261022 -0.16391188 -0.15915328 0.07497365
000020 9a e6 62 bb f3 ac c7 bd 9a f6 8d bd e1 e6 8b bc
       -0.0034622313 -0.09749784 -0.06931801 -0.017077865
000030 b0 e1 28 3c a4 c5 1d be f2 47 61 bd 93 a9 25 3e
       0.010307714 -0.15407425 -0.055000253 0.16177969
000040 cb 85 b3 3d a5 d2 79 3e c8 4a 66 3d b1 5b 02 3e
       0.08765753 0.24396761 0.05622366 0.1273029
000050 06 8f 4b bc 1f 8d b5 bc a4 cb 8b 3d be a4 9e bd
       -0.012424236 -0.022162018 0.06825951 -0.07746266
000060 03 e2 1b 3e 97 a3 ae be c0 12 af be c7 b1 c5 bd
       0.15222935 -0.34109184 -0.34193993 -0.09653049
000070 cb 04 89 3e fc 16 2a be f0 7f 52 3d a0 c0 5d bc
       0.2676147 -0.1661033 0.051391542 -0.013534695
000080 02 20 04 be d8 13 d4 bc 31 0b c8 bd 16 86 02 be
       -0.12902835 -0.025888368 -0.097677596 -0.12746462
000090 a5 19 11 be 4a b1 2e 3e 78 41 fe bd 80 3c 02 bc
       -0.14169939 0.17059818 -0.12414831 -0.007948995
0000a0 bf 8a 7a bd 97 4e 40 3d b2 13 c4 3d 19 3a d2 bc
       -0.061167475 0.04694995 0.09574069 -0.025662469
0000b0 fc d1 0a 3e c1 f3 1c bd 35 51 d6 bd 66 3c 98 3d
       0.13556665 -0.0383184 -0.10464708 0.07433395
0000c0 e7 ed 81 bd 42 36 0c bd d2 82 19 3e 17 dd eb 3b
       -0.063442044 -0.03423143 0.1499131 0.007197987
0000d0 d1 1d 7b bd d2 ba da bd 5f 7d f4 3d 46 c2 4d bd
       -0.061307732 -0.106801644 0.11937975 -0.0502341
0000e0 18 e9 60 bd 71 cf a5 bd a1 c7 19 be ed f4 c2 bd
       -0.054909796 -0.08096207 -0.15017559 -0.09519372
0000f0 f1 c6 4a 3d 8e ad 4b 3d b0 ec ff 3d 4a 92 0a 3e
       0.04950613 0.04972606 0.124963164 0.13532367
000100 5d 4a 85 be c7 25 3e 3d 80 35 37 3e d0 3d 00 3d
       -0.26033297 0.046422746 0.17891502 0.03130895
000110 d7 f7 d9 3d 3f 72 90 3e bc 41 88 3d d6 72 28 bd
       0.10642975 0.28212163 0.06653163 -0.04112514
000120 ba a2 8f 3d 32 dd 00 3e 8f cb 21 be 2c 6b a1 3d
       0.070134595 0.1258438 -0.15800308 0.078817695
000130 cf 94 8f 3d 4c de 92 3d 42 d7 f9 bd 22 5c f0 bd
       0.07010805 0.07171306 -0.1219926 -0.11736323
000140 59 e7 81 be 86 04 d7 3d 6a e2 dd 3d bc 39 42 3d
       -0.25371817 0.1049891 0.10834201 0.04741834
000150 ec 50 79 bd 28 04 93 3d 87 b8 78 bd 08 98 f4 bd
       -0.06086819 0.07178527 -0.060722854 -0.1194306
000160 e4 d5 30 be ca c9 4a 3e 2c 64 2f 3e 5c e6 63 bd
       -0.17269093 0.19803539 0.17128056 -0.05563961
000170 98 01 28 3d 23 1d af bd a5 a0 28 3d c2 73 6b bd
       0.041017145 -0.08550479 0.041168828 -0.057483442
000180 c0 9d 38 3b 5b 25 46 bd 5d 30 76 3e f6 5c ba bd
       0.0028170198 -0.04837547 0.24041887 -0.09099762

fc2.weight f4 [10, 100]
000000 d4 92 cb be 72 c7 2a 3d a0 df e1 3d 39 49 c6 3d
       -0.39760458 0.041694112 0.11028981 0.09681935
000010 4f 91 cb 3d 1f 0f 69 bc 80 29 51 bd 4b 96 53 bf
       0.09939825 -0.014224797 -0.051064968 -0.82651204
000020 60 5b 36 3d 5d 9f 54 3d a4 76 04 bf 0b 26 41 3a
       0.044520736 0.051909793 -0.5174353 0.00073680346
000030 64 25 48 be 58 48 8a 3c 23 a9 c6 bc 3d f5 32 3d
       -0.19545513 0.0168802 -0.024250573 0.04369091
000040 5f 99 d0 bc 36 42 83 bd 68 40 85 3c 19 4c d3 be
       -0.025463758 -0.06409113 0.016266063 -0.41268995
000050 f1 04 b3 3e de 3e fa be 24 15 0e bd e0 4e eb bc
       0.34964707 -0.4887609 -0.03468813 -0.028724134
000060 79 b0 9f be 14 74 1c 3c 7a d7 fe 3d 59 c8 4a 3d
       -0.31189325 0.00954916 0.12443443 0.049507473
000070 21 89 3c be 40 9b 0d 3e ba 0b 83 bd c0 54 48 bd
       -0.18411686 0.13828754 -0.06398721 -0.04890895
000080 e3 6d df 3d b3 c6 c0 3d 8c 46 c0 3b 0a a9 4d 3d
       0.10909631 0.09412899 0.005867785 0.050210036
000090 0e 44 87 3d 6f 53 dc be 55 4b cc bd 8e 8e a0 bd
       0.06604777 -0.43032405 -0.09975306 -0.0783969
0000a0 a3 65 bf be 62 35 a0 be 00 d1 66 bd bd ed 99 3c
       -0.3738223 -0.31290728 -0.05635166 0.01879012
0000b0 72 14 62 3d 42 16 5e 3d c0 6a 2c bd c9 8b 2a 3e
       0.05519528 0.054220445 -0.042093992 0.16654886
0000c0 99 7e 0e bf 0a a5 bb bd 58 9f 33 be df 46 63 3e
       -0.5566192 -0.09162338 -0.17541254 0.22195004
0000d0 3d 75 46 3e 6f b8 46 3d 78 84 69 be 00 1e 8b 39
       0.1938066 0.048515733 -0.22804439 0.00026534498
0000e0 c1 85 8b 3d 65 0e b9 3d 60 f6 69 bb b3 9a 29 3d
       0.06812621 0.09035949 -0.003569983 0.0414073
0000f0 d9 25 5f 3e 4b f5 9a be 60 75 8f 3c 70 81 6a bc
       0.21791781 -0.3026527 0.017512023 -0.014313087
000100 e5 5d 07 3e 6f c9 32 3d 26 d6 fa bb 3b 42 95 3d
       0.13219412 0.043649133 -0.007654923 0.07288023
000110 d8 2d 21 3e e6 c1 37 be f5 97 18 3e d5 28 5b 3d
       0.15740144 -0.1794506 0.14901717 0.053505737
000120 84 5c a4 3e ed c1 6e bd fb 2c 82 3e 26 74 99 be
       0.32101834 -0.05829041 0.25424942 -0.29971427
000130 cb 49 ed bb 92 df 01 3d 81 13 9f be 24 7a df 3c
       -0.007241463 0.031707354 -0.31069568 0.02727992
000140 d6 c1 ee bd 56 af 5b be 60 60 5f bd 02 65 4f 3b
       -0.11658065 -0.21453604 -0.05453527 0.0031645899
000150 c2 e0 7a 3e ed 46 3e bd ce 98 3f 3e 1c 41 1f 3f
       0.24499801 -0.04645436 0.18710634 0.62208724
000160 88 05 8f be 74 a6 ee 3d 7d d3 a3 bd f1 89 16 3b
       -0.27933908 0.11652842 -0.079993226 0.0022970403
000170 ec 61 13 bd 2b dd a5 3d 1f 74 ac 3c eb 38 a9 bd
       -0.035982057 0.08098825 0.021051465 -0.08262809
000180 58 d0 ae bd 55 57 d4 3e c3 5a b6 3d 74 e2 96 bc
       -0.08535832 0.4147288 0.0890403 -0.018418528
000190 ac 93 6d bf b2 2b 36 3d 60 74 5b bf 10 e9 08 bc
       -0.92803454 0.044475265 -0.8572445 -0.008356348
0001a0 20 68 bf 3c d8 27 34 3e 18 f3 ab bc db e7 dc be
       0.02336508 0.17593324 -0.02098994 -0.43145642
0001b0 60 80 74 3d 5f 86 e3 3c e1 ad b8 3c b6 7d 67 3d
       0.05969274 0.027774034 0.02254385 0.05651637
0001c0 ab 45 16 bd f0 13 ae bc cc a3 26 be 1d 94 1e bc
       -0.036687534 -0.021249741 -0.16273421 -0.009678868
0001d0 2d fc ac bc 1f 7c 5e be d4 1e 86 bd fc fe ae be
       -0.02111634 -0.21727036 -0.06548849 -0.34178913
0001e0 7a 10 58 bf 76 49 16 3f 52 ca ee 3c 34 f5 cb bc
       -0.8440014 0.5870584 0.029149208 -0.024897195
0001f0 32 14 44 bf ba eb d0 3c 83 a1 5d 3e 4c c0 cd 3d
       -0.76593316 0.025503028 0.21643643 0.10046443
000200 f8 74 8e bb d9 3b 9b be da de 4b bd e8 79 af bd
       -0.00434744 -0.30319098 -0.049773075 -0.08568174
000210 03 d5 a9 3d 2f 39 c1 3d de 64 96 bc 96 be 95 3d
       0.08292582 0.09434735 -0.018358644 0.07311742
000220 88 33 bc be b4 af d5 3e 9d a3 b1 bd 58 95 f2 bc
       -0.36758065 0.41735613 -0.08673785 -0.029612228
000230 95 9d 88 be 1f d1 83 be 8e 09 f1 bc 70 cb b0 bd
       -0.26682726 -0.25745484 -0.029423501 -0.086325526
000240 50 c9 61 bd 87 84 75 3e 75 d3 74 bd 07 23 30 be
       -0.055123627 0.23976336 -0.059771974 -0.17200862
000250 17 e5 91 3d 04 86 12 3d 9b 47 d9 be e7 5c 12 be
       0.071237735 0.03577234 -0.42437443 -0.14293252
000260 38 2f a2 3d 5e 2d 14 bd 43 2d 0b 3e 86 c2 67 3d
       0.079191625 -0.036176078 0.13591485 0.056581996
000270 62 bc 2a 3d 3d b8 a4 bd 59 53 a5 3d ae 7f 09 bd
       0.041683562 -0.08042953 0.08072538 -0.03356903
000280 a4 9d 54 be d5 f0 24 bf 9a 14 7e bd 74 33 ad bc
       -0.2076326 -0.6442998 -0.062031366 -0.021142699
000290 27 d8 09 3e a7 cd d4 3c 8b f0 af 3d 58 12 42 3c
       0.13461362 0.025976969 0.08590802 0.011845194
0002a0 62 af 67 bc 44 53 70 bd 6f 5b 30 3e b0 7a bf be
       -0.014140936 -0.05867316 0.17222379 -0.3739829
0002b0 37 26 10 bf 27 ad 97 3d c6 3d 9f be 49 90 c3 be
       -0.5630831 0.07406073 -0.31101817 -0.38196018
0002c0 21 94 d0 3d fb 67 a1 bd 8f c3 15 bf e9 14 bd 3d
       0.10184503 -0.07881161 -0.58501524 0.09232504
0002d0 88 80 a1 3e 4b 45 d2 3e dd 17 39 3e b9 aa 11 bd
       0.31543374 0.4106849 0.1807551 -0.035563204
0002e0 76 aa 12 3f 72 77 24 3d 26 5c f9 3d 5d 21 10 3e
       0.5729135 0.040152974 0.12175779 0.14075227
0002f0 74 79 ac 3d 43 08 a9 bd ac 8b 80 3c 9d b5 5b bd
       0.08421603 -0.08253529 0.0156916 -0.053639997
000300 f8 27 c6 bd 2a a2 7a bd 54 ec 6e 3d 80 01 d1 ba
       -0.09675592 -0.061189808 0.05833085 -0.0015945882
000310 00 f8 80 bc dc a2 0d bf fc 9e 1a 3e c9 fe c6 3d
       -0.015743256 -0.5532663 0.1509971 0.09716565
000320 9f 89 6e 3d 54 0f 09 bd 79 4a 1f 3e 28 76 f9 bc
       0.058236714 -0.033461884 0.15555753 -0.03045185
000330 0b 46 ce 3d ff a8 1e 3d e0 94 d3 3b 60 34 3a 3e
       0.100719534 0.038735386 0.0064569563 0.18184042
000340 47 a0 54 bc 11 31 4e be 32 fd b5 bd 40 06 15 3e
       -0.012977666 -0.20135905 -0.08886184 0.14553165
000350 2b ce 88 3e 72 19 b2 bd 27 48 d6 bd 28 d1 9f 3e
       0.26719794 -0.086962596 -0.10462981 0.3121426
000360 c5 05 6f 3d 5b fe b3 3e be c3 62 3d 44 61 1a be
       0.05835511 0.35154995 0.055362456 -0.15076166
000370 28 2d 95 be b6 0d 8b 3e 6b f2 47 3c c0 be 1c 3c
       -0.29136014 0.27158898 0.012203793 0.009566963
000380 d1 ca c3 be 0b 02 6e 3c bb fa 15 be 11 97 1e 3e
       -0.38240674 0.014526854 -0.14646427 0.15487315
000390 7f 43 53 3e 29 7a 46 3e d8 b4 36 3c 80 98 de 3a
       0.20631216 0.19382538 0.011151515 0.0016982704
0003a0 d9 fa 01 3e 72 8c 1d 3d 4a 55 66 3d 02 ed ad bd
       0.12693347 0.038464017 0.05623368 -0.08492471
0003b0 af 2f a1 bd 85 c5 0b bf 6a 6a 24 bd 8f 40 a2 3d
       -0.07870423 -0.54598266 -0.040140547 0.0792247
0003c0 65 dc 60 3e 08 83 3b bd d1 46 ea 3c af e9 bc bc
       0.21959074 -0.045779258 0.028598221 -0.023060648
0003d0 0c aa fe 3c 4f 09 cb 3c 08 98 8d bd 71 9c fc 3e
       0.031086944 0.024784712 -0.06913763 0.49338105
0003e0 af 47 4f be 9b b6 a5 bd 79 6d 01 3e f7 17 0f 3f
       -0.20242189 -0.0809147 0.12639417 0.5589594
0003f0 df d4 db 3d 6b 28 b5 3d 0e 4c ce 3e d5 94 c7 bd
       0.10733961 0.088456 0.402924 -0.09745184
